18layer-model.pkl (torch_old, 386747 bytes, 42 tensors)

weight f4 [16, 4]
0	0x4092b1f6	4.5842237
1	0x3cb51757	0.022105856
2	0x3ebfaf90	0.3743863
3	0x3eb337b8	0.35003448
4	0xbec98fab	-0.39367422
5	0x39db15b1	0.00041787096
6	0x3d83f8b4	0.06443921
7	0xbedbe205	-0.42945877
8	0x3fe17341	1.7613298
9	0xbdabd9d1	-0.083911546
10	0xbf1ca02a	-0.6118189
11	0x3f70b923	0.94032496
12	0x3efb327e	0.4906196
13	0x3d9e51eb	0.07730468
14	0x3e994467	0.29935
15	0x3ee7e0bc	0.45288646
16	0xbee82b36	-0.45345467
17	0xbe769f8d	-0.24084301
18	0xbe138fe2	-0.14410356
19	0x3e9da8f0	0.30792952
20	0xbe7bba21	-0.24582721
21	0xbcb557cd	-0.022136593
22	0x3e2587c6	0.16165075
23	0xbefe39de	-0.49653524
24	0xbe3d64b3	-0.18495445
25	0xbef71799	-0.4826019
26	0x3ec7710a	0.3895343
27	0xbeaea1a2	-0.3410769
28	0xbcfa56a4	-0.030558892
29	0xbdc79c86	-0.09746651
30	0x3eb56e93	0.35435924
31	0x3edbd493	0.4293562
32	0xbe12a7d4	-0.14321834
33	0xbe9f1e00	-0.31077576
34	0x3ec260b8	0.37964416
35	0x3e919b6b	0.28438887
36	0xc035ca75	-2.840482
37	0x3e947f6e	0.2900347
38	0x3f2902cf	0.6601991
39	0xbe991e42	-0.29905897
40	0x408a85e4	4.328844
41	0xbe0693fb	-0.13142388
42	0x3d7d334e	0.061816506
43	0x3f6ba96c	0.9205539
44	0x3e369632	0.17830732
45	0xbefdfe07	-0.4960787
46	0x3ca568bf	0.020191548
47	0xbd4f170c	-0.05055909
48	0x40888e97	4.267406
49	0x3cf7d357	0.030252142
50	0x3ebe137e	0.37124246
51	0x3eae3470	0.34024382
52	0xbe8fd707	-0.2809374
53	0xbdf5d1dc	-0.12002918
54	0xbeb1664f	-0.34648368
55	0xbe89bb2c	-0.26900613
56	0x3fa8a8ab	1.3176473
57	0x3c3477d7	0.0110149
58	0xbebc82b8	-0.3681848
59	0x3f54150d	0.8284462
60	0x3e093439	0.13398828
61	0xbe45abfd	-0.1930389
62	0xbeabcff9	-0.33557108
63	0x3e8906eb	0.2676309

bias f4 [16]
0	0x3ebcdc12	0.3688665
1	0xbd1b63fc	-0.03793715
2	0x3f406450	0.75153065
3	0xbe9d9f30	-0.30785513
4	0x3e98a733	0.29815063
5	0x3e919bfd	0.28439322
6	0x3eefe6d5	0.46855798
7	0x3da897a0	0.08232045
8	0xbe503305	-0.20331962
9	0x3e4ea4c7	0.20180045
10	0x3efb9b9a	0.49142152
11	0xbd89c1ed	-0.067264415
12	0x3e651946	0.22372922
13	0x3ea1df0a	0.31615478
14	0x3e8189e2	0.2530051
15	0xbe6d587d	-0.23178287

weight f4 [16, 16]
0	0x3e1be420	0.15223742
1	0xbd75135e	-0.059832923
2	0x3d5a3086	0.05326893
3	0xbed4c362	-0.41555315
4	0x3d593b00	0.053034782
5	0xbd990826	-0.07472257
6	0x3c964796	0.018344682
7	0x3e121fd1	0.1426995
8	0x3e1f01ba	0.15528002
9	0xbe704311	-0.23463084
10	0x3de99994	0.11406246
11	0x3d10385d	0.035210002
12	0x3e04bd1d	0.12962766
13	0x3e66dc9c	0.22545093
14	0xbeb0f115	-0.3455893
15	0x3d180c47	0.037121084
16	0xbec94926	-0.3931362
17	0xbb4de5b1	-0.0031417424
18	0xbe5aeed9	-0.21380176
19	0x3e0599d7	0.13046966
20	0x3e1cea21	0.15323688
21	0x3e214c60	0.15751791
22	0x3e1f6ad5	0.15568097
23	0x3e5bfeea	0.21483961
24	0x3d56ca52	0.05243904
25	0x3efbeea7	0.49205515
26	0xbe9e70c1	-0.309454
27	0x3e433200	0.19062042
28	0xbe979c6b	-0.29611525
29	0x3e3cb318	0.18427694
30	0xbde16061	-0.11004711
31	0xbe128bdf	-0.14311169
32	0xbc81f42a	-0.015863497
33	0xbe67707d	-0.22601505
34	0xbcf7132d	-0.03016051
35	0x3df8bb85	0.121451415
36	0x3d36dc91	0.044643942
37	0x3c51baaa	0.012800852
38	0xbe498b49	-0.1968204
39	0x3e67dc32	0.22642592
40	0xbe52e5ec	-0.2059552
41	0xbe7bb30c	-0.2458002
42	0x3e1e77fb	0.15475456
43	0xbdd52c21	-0.104088075
44	0x3c324621	0.010880978
45	0x3e1afb81	0.15135004
46	0x3c92e277	0.017930252
47	0x3d431c29	0.047634277
48	0xbe1d847d	-0.15382572
49	0x3e046152	0.1292775
50	0x3cac48bf	0.021030782
51	0xbda3e328	-0.08002311
52	0xbc847582	-0.016169313
53	0xbe24e919	-0.16104545
54	0xbe767816	-0.24069247
55	0x3e506c9d	0.20353933
56	0xbe056cc8	-0.13029778
57	0x3cf16141	0.02946532
58	0x3cab7090	0.020927697
59	0x3e257edd	0.16161676
60	0xbe0ae218	-0.1356281
61	0xbd91e4e2	-0.07123734
62	0xbd848e4d	-0.06472454
63	0x3e61d920	0.22055483
64	0xbe2ca413	-0.16859464
65	0xbd5a7126	-0.053330563
66	0xbe4565b0	-0.19277072
67	0xbcf54047	-0.029937876
68	0x3c95744c	0.018243931
69	0xbc263c70	-0.010146245
70	0x3e12240e	0.14271566
71	0xbd0c1386	-0.034198307
72	0xbd985c73	-0.07439508
73	0xbe164767	-0.14675675
74	0xbc3ddd46	-0.0115884
75	0x3e22e3c3	0.15907197
76	0xbe0fc5ae	-0.14040253
77	0x3c64b8ac	0.013960045
78	0x3dfc1629	0.12308914
79	0x3e5591e3	0.20856433
80	0x3ec576bd	0.38567153
81	0xbd11036e	-0.03540366
82	0xbd7b7305	-0.061388988
83	0xbe31358b	-0.17305581
84	0x3d3b94dd	0.045796264
85	0x3d8793cf	0.06619989
86	0xbe153354	-0.14570361
87	0x3e2182a4	0.15772492
88	0xbe50f2e4	-0.20405155
89	0xbdff3c6f	-0.12462699
90	0x3dead27c	0.11465928
91	0x3e676e75	0.2260073
92	0x3ecd53c5	0.40102974
93	0xbd60e16e	-0.054902487
94	0x3b378d07	0.0028007643
95	0xbe0b3612	-0.13594845
96	0x3d87dd22	0.066339746
97	0x3df976c6	0.12180857
98	0x3cfd04d0	0.030886084
99	0xbe479f21	-0.19494297
100	0x3e284179	0.16431226
101	0xbcaf16d8	-0.021373197
102	0x3e6d817f	0.2319393
103	0xbd1762ae	-0.036959343
104	0xbcf79af4	-0.030225255
105	0xbdc14173	-0.094363116
106	0x3dc824b9	0.09772629
107	0x3d2699e7	0.040674116
108	0x3e6eb3cb	0.23310773
109	0x3df393e1	0.1189344
110	0x3da9b0a4	0.08285645
111	0x3dbbafbd	0.09164379
112	0xbe01fcce	-0.12694094
113	0xbe407ebc	-0.18798345
114	0x3dee58d6	0.11638038
115	0x3e560318	0.20899618
116	0x3e4aa603	0.19789891
117	0x3db8ded6	0.090268776
118	0x3e0bcbbc	0.13651937
119	0x3e49b9e9	0.19699825
120	0x3e57b747	0.21066009
121	0x3e8a4c68	0.27011418
122	0xbe7d9fac	-0.24767941
123	0x3c276df1	0.010219083
124	0xbd2e72bf	-0.0425899
125	0xbde7f460	-0.11325908
126	0x3e29a36b	0.16566245
127	0x3e74dea2	0.23913053
128	0xbd8673c4	-0.06565049
129	0xbe812189	-0.25220898
130	0xbd802e2e	-0.06258808
131	0xbdbfd281	-0.09366322
132	0xbdb27283	-0.087132476
133	0xbe18c432	-0.14918593
134	0x3e27ed49	0.16399111
135	0x3df3f5cf	0.11912119
136	0x3e0229fc	0.12711328
137	0xbe7163e8	-0.23573267
138	0xbad0cc3d	-0.0015930008
139	0x3e51a253	0.20472078
140	0x3e747eb5	0.2387646
141	0xbe30b4d0	-0.17256474
142	0x3e59fd35	0.21287997
143	0x3d0f7727	0.035025742
144	0xbe5dc3ca	-0.21656719
145	0xbd5cdf98	-0.053924173
146	0xbe0edac4	-0.1395064
147	0xbe1140a6	-0.14184818
148	0xbd0018cf	-0.03127366
149	0xbe7aaf4b	-0.24480931
150	0x3c670278	0.01409971
151	0x3e0fcd51	0.14043166
152	0x3e34668f	0.17617248
153	0x3f226eb9	0.634502
154	0xbeda0530	-0.42582083
155	0xbd9704df	-0.07373976
156	0xbe8e3922	-0.27777964
157	0xbb374330	-0.002796363
158	0xbcdff24f	-0.027337221
159	0xbe466159	-0.19373073
160	0xbef5e5f2	-0.48026997
161	0x3eb0271f	0.34404847
162	0xbea43cf6	-0.3207776
163	0x3e2f9b64	0.1714912
164	0xbe1058fb	-0.14096443
165	0x3e176478	0.1478442
166	0xbd941f54	-0.07232538
167	0xbe61b787	-0.22042666
168	0x3e0fb74a	0.14034763
169	0x3ed6cf0d	0.41954842
170	0xbed5d8d4	-0.4176699
171	0xbd70fa33	-0.05883236
172	0xbeec14bd	-0.46109572
173	0xbe1de220	-0.15418291
174	0x3e1ee3a0	0.1551652
175	0x3e6b983b	0.2300729
176	0x3ee0549a	0.43814546
177	0xbd03bb17	-0.032160845
178	0xbe6fcef3	-0.23418789
179	0x3d79d005	0.0609894
180	0x3ddcc25b	0.10779258
181	0xbce945de	-0.028475698
182	0xbd0f5f87	-0.03500321
183	0x3dc42bcc	0.09578666
184	0x3e138031	0.1440437
185	0xbeabb671	-0.3353763
186	0x3e328112	0.17432049
187	0xbe0444f5	-0.1291693
188	0x3e815579	0.25260523
189	0xbe4b1785	-0.1983319
190	0xbcb4de1d	-0.022078568
191	0x3cb3e5e1	0.0219602
192	0xbe97f106	-0.29676074
193	0x3d8ac591	0.06775964
194	0xbe8e27be	-0.27764696
195	0x3d93fd0d	0.07226
196	0x3e5aa359	0.21351375
197	0x3e10c899	0.14139022
198	0x3c295ab4	0.010336567
199	0xbe1ae1ac	-0.1512515
200	0xbe7448a5	-0.23855837
201	0x3e5da45b	0.21644728
202	0x3d84d8a6	0.06486635
203	0x3e4aa9dc	0.19791359
204	0xbe5ef053	-0.21771364
205	0x3e197bcf	0.14988635
206	0xbdee693b	-0.11641165
207	0x3e494f89	0.19659247
208	0xbe56ecd7	-0.20988785
209	0x3d9000ce	0.070314035
210	0x3d71210e	0.058869414
211	0xbddb9adb	-0.10722896
212	0x3dcfb3d0	0.101417184
213	0xbc9af891	-0.018917354
214	0xbe618cce	-0.22026369
215	0x3e7725d5	0.24135526
216	0x3e1cade0	0.15300703
217	0xbdba8f4f	-0.09109365
218	0x3dcd8a7b	0.10036179
219	0x3e671494	0.22566444
220	0x3c822af1	0.015889617
221	0xbd818850	-0.06324828
222	0xbe65e7cb	-0.22451703
223	0xbdb9f81c	-0.09080526
224	0xbaad7c6c	-0.0013235933
225	0xbdcd739a	-0.10031815
226	0xbe121520	-0.14265871
227	0xbe1e3a72	-0.15451983
228	0xbdb2a325	-0.087225236
229	0xbe4febbb	-0.20304768
230	0x3dd0fe0d	0.10204706
231	0x3e6655f7	0.2249373
232	0xbc8d6d6b	-0.017264089
233	0xbb792661	-0.003801726
234	0xbe5c7634	-0.21529466
235	0x3d789dbf	0.060697313
236	0x3d6587b1	0.05603761
237	0xbdc6c491	-0.09705461
238	0x3d106761	0.03525484
239	0x3d1117aa	0.03542296
240	0x3e7f51da	0.24933568
241	0x3e37c935	0.17947848
242	0x3dbbe01f	0.09173607
243	0xbe86739a	-0.26260072
244	0xbdbc5e71	-0.09197701
245	0x3e6157f4	0.22006208
246	0x3e61a8bd	0.22037025
247	0xbda7432a	-0.081671074
248	0xbe6c6f3f	-0.23089312
249	0x3ecb7140	0.3973484
250	0xbea8f93e	-0.33002657
251	0x3e081704	0.1329003
252	0x3d1c787a	0.038200833
253	0xbdd33e48	-0.103146136
254	0xbc4fa89c	-0.012674477
255	0x3d243bd7	0.04009613

bias f4 [16]
0	0xbe4cefee	-0.20013401
1	0x3d8affe4	0.067870885
2	0xbe40e6d4	-0.18838054
3	0xbbf3dffb	-0.007442472
4	0xbe06f277	-0.1317843
5	0xbdcac5b7	-0.09900992
6	0x3d5ff410	0.054676116
7	0xbe088e65	-0.13335569
8	0x3e1ed03f	0.15509127
9	0x3a3a2a83	0.00071016717
10	0xbdaf128f	-0.08548462
11	0xbed4eff8	-0.41589332
12	0xbc660d74	-0.014041293
13	0xbd5e5ef5	-0.054289777
14	0x3cbf8b7a	0.023381937
15	0xbdb364c4	-0.08759454

weight f4 [16, 16]
0	0x3e8571f0	0.2606349
1	0x3bafacb8	0.005361166
2	0xbeb1ec31	-0.34750512
3	0xbd3325d1	-0.043737236
4	0xbdc19adf	-0.094533674
5	0xbe99e429	-0.30056885
6	0xbd98edb4	-0.07467213
7	0xbd52c26a	-0.05145494
8	0xbe8568d6	-0.26056546
9	0xbe6812ce	-0.22663423
10	0xbbf17ab7	-0.007369365
11	0xbf174e60	-0.59103966
12	0x3ddcc170	0.10779083
13	0xbe386431	-0.1800697
14	0x3e515c3c	0.20445341
15	0xbe16c322	-0.14722875
16	0x3d1addb8	0.037809104
17	0xbe6dfdfd	-0.2324142
18	0xbe46cea6	-0.19414768
19	0xbe58cb28	-0.21171248
20	0xbc9801a8	-0.018555477
21	0xbd4ba20f	-0.049715098
22	0x3e270c22	0.16313222
23	0xbcc8d830	-0.024517149
24	0x3e1da71c	0.15395778
25	0x3e09b921	0.13449527
26	0xbe92d9df	-0.28681847
27	0xbdf8bda5	-0.12145547
28	0xbd20d3f9	-0.039264653
29	0x3de945ec	0.1139029
30	0xbcdb99a5	-0.026806662
31	0xbc06fd63	-0.008239123
32	0x3d6c0ac5	0.057627458
33	0xbe28e00c	-0.16491717
34	0x3d58cf0c	0.05293183
35	0x3e29297d	0.16519733
36	0xbe630020	-0.22168016
37	0xbc9a9f9c	-0.018874936
38	0x3cceba6c	0.025235377
39	0xbbd78bd6	-0.006577949
40	0x3dedeee6	0.11617832
41	0xbe1140a4	-0.14184815
42	0x3d991e97	0.07476538
43	0xbd1c9cd2	-0.038235493
44	0xbd479d59	-0.048734043
45	0x3e4b883f	0.19876193
46	0x3dc38779	0.09547324
47	0x3e2c1931	0.16806485
48	0x3e33fea3	0.17577605
49	0xbefb81c2	-0.49122435
50	0xbe366351	-0.17811324
51	0xbe3ac784	-0.18240172
52	0xbe544e79	-0.2073306
53	0x3d385cdb	0.04501043
54	0xbcc363c2	-0.02385128
55	0xbe269080	-0.1626606
56	0x3e5381e7	0.20655023
57	0xbe09be3e	-0.13451478
58	0xbee31d24	-0.4435817
59	0xbe700f9c	-0.23443455
60	0xbdbc0a1d	-0.091816165
61	0x3e4bf03f	0.19915865
62	0xbdc98acd	-0.09840927
63	0x3db4bfe0	0.0882566
64	0x3d6c54ad	0.05769794
65	0x3d53f982	0.05175162
66	0x3e4008a9	0.18753304
67	0x3e131b77	0.14365946
68	0xbe6fd228	-0.23420012
69	0x3d8c1cbc	0.06841418
70	0xbc9ce0ac	-0.0191501
71	0x3d80a221	0.06280924
72	0x3d919da5	0.071101464
73	0x3be8b3fd	0.0071015344
74	0xbe166100	-0.1468544
75	0x3d200981	0.039071564
76	0xbca1982b	-0.01972588
77	0x3e216fb7	0.15765272
78	0xbd101836	-0.03517934
79	0x3ce16a1f	0.027516423
80	0x3e3b0070	0.18261886
81	0x3d6b0719	0.057379816
82	0x3d2e7a42	0.042597063
83	0xbe1977fc	-0.14987177
84	0x3e306171	0.17224671
85	0xbe3df4f5	-0.18550475
86	0xbe757d37	-0.23973547
87	0x3e3b9855	0.18319829
88	0x3cbb471b	0.022861054
89	0xbe8a10fc	-0.26966083
90	0x3c4ba386	0.012429124
91	0xbe1f7ec5	-0.15575702
92	0x3e3568ce	0.17715761
93	0xbe2b6799	-0.16738738
94	0x3e3633ff	0.17793272
95	0xbe1b2d92	-0.15154102
96	0x3e95fc60	0.2929411
97	0xbb74c550	-0.0037349053
98	0xbe46b68b	-0.19405572
99	0x3db9433e	0.090460286
100	0xbdd9788d	-0.10618696
101	0x3e01c3a9	0.12672295
102	0xbd824e75	-0.06362621
103	0xbdcc8005	-0.09985355
104	0x3dd42fc8	0.10360676
105	0xbddc8106	-0.10766797
106	0x3d272423	0.040805947
107	0x3e0d7413	0.1381381
108	0xbd73c68e	-0.05951553
109	0x3e1ee014	0.15515167
110	0x3e7ba85e	0.24575946
111	0xbdf33675	-0.11875621
112	0x3e2914ab	0.1651179
113	0x3b1a1a21	0.002351411
114	0xbcf4a871	-0.029865475
115	0x3e44c08f	0.1921408
116	0xbbf8b551	-0.007589974
117	0xbd90b021	-0.07064844
118	0x3d98a74c	0.07453784
119	0x3d89cb2b	0.06728204
120	0x3d079edc	0.033110484
121	0xbe206495	-0.15663369
122	0xbd335f4e	-0.04379206
123	0x3e0104cb	0.12599485
124	0x3d230059	0.039795253
125	0x3d95a851	0.073074944
126	0xbe0773da	-0.13227788
127	0x3e1d7374	0.15376073
128	0xbdc44c9e	-0.09584926
129	0xbd9159dd	-0.07097218
130	0x3dac2ee4	0.08407381
131	0x3cc86f0f	0.02446702
132	0xbe2dab38	-0.16959846
133	0xbe707050	-0.23480344
134	0x3e0b9d8d	0.1363432
135	0xbe832b92	-0.2561918
136	0xbbc65821	-0.0060529863
137	0x3d9c49b2	0.07631244
138	0x3c6373ab	0.013882558
139	0x3e2e8e2a	0.17046419
140	0xbe481ea0	-0.19542933
141	0xbe4e9f04	-0.20177847
142	0x3dd943e9	0.10608656
143	0xbdf032a1	-0.11728407
144	0x3e124b01	0.14286424
145	0xbed425e6	-0.41435164
146	0x3c982671	0.018573018
147	0x3cd461c1	0.025925519
148	0xbdfa24f7	-0.12214082
149	0xbd127b0c	-0.035761878
150	0xbe4252c4	-0.18976885
151	0xbec33935	-0.38129583
152	0xbe9418dc	-0.28925216
153	0xbee3e3f7	-0.4450986
154	0xbe7ade9b	-0.2449898
155	0x3d9196ac	0.071088165
156	0xbe350dcd	-0.17681046
157	0xbe1ef911	-0.15524699
158	0xbe167ec5	-0.14696796
159	0xbec29b2d	-0.38009015
160	0xbed2efb7	-0.41198513
161	0xbea914e7	-0.3302376
162	0x3d4a888f	0.04944664
163	0x3e17e2f6	0.14832672
164	0x3e672842	0.22573951
165	0xbefe7aec	-0.49703157
166	0xbe908f62	-0.28234392
167	0xbe70e2a7	-0.23523961
168	0x3d92ed78	0.071742
169	0xbe332b0c	-0.1749689
170	0xbec83b80	-0.39107895
171	0xbe90c029	-0.28271607
172	0xbe1d64ca	-0.15370479
173	0x3e012aab	0.12613933
174	0x3bdcb254	0.0067351256
175	0xbe46f40f	-0.19429038
176	0x3e0af419	0.13569678
177	0xbd923241	-0.071384914
178	0x3e6fb7c8	0.2340995
179	0x3e0bea0c	0.136635
180	0xbe281b89	-0.16416754
181	0xbe412236	-0.18860707
182	0x3d833745	0.06407026
183	0xbbb8c4e5	-0.005638706
184	0xbdcd7c31	-0.10033453
185	0x3dc2373a	0.0948319
186	0x3dc9283f	0.098221295
187	0xbda13d1f	-0.07872986
188	0x3d1ca003	0.038238537
189	0xbdcb027a	-0.09912582
190	0xbca04065	-0.019561956
191	0xbd422eb0	-0.047407806
192	0xbe51f192	-0.20502308
193	0xbd4f07c3	-0.05054451
194	0xbc5daaba	-0.013529474
195	0x3e6a93e2	0.22907975
196	0x3e33190c	0.17490023
197	0xbe59a789	-0.21255316
198	0xbd9bd5cf	-0.0760914
199	0xbd65af0d	-0.056075145
200	0xbe18b0e0	-0.14911222
201	0xbd082adc	-0.033244
202	0xbe116bb9	-0.14201249
203	0xbe9f25f6	-0.3108365
204	0xbdaca988	-0.08430773
205	0x3d1024c7	0.035191324
206	0x3c904c7c	0.017614596
207	0xbcc482dd	-0.023988182
208	0x3df546e8	0.11976415
209	0x3df3111f	0.118685
210	0x3de7cf73	0.11318865
211	0xbe46a6dc	-0.1939959
212	0xbc78100c	-0.015140545
213	0xbe2bf32c	-0.16791981
214	0xbe5f999a	-0.21835938
215	0x3e0cfc19	0.13768043
216	0xbcb0c1f4	-0.021576859
217	0xbe54f90e	-0.20798132
218	0xbe46d336	-0.19416508
219	0x3e166816	0.14688143
220	0xbe4886c2	-0.19582656
221	0xbe2e612a	-0.17029253
222	0x3ca19723	0.019725388
223	0xbdefb207	-0.11703878
224	0x3dce17a8	0.10063106
225	0xbc6c08d7	-0.014406404
226	0xbd86c7f1	-0.065811045
227	0x3e4e309c	0.2013573
228	0x3c64718a	0.013943085
229	0xbe0193ee	-0.12654087
230	0xbe329359	-0.17439021
231	0xbe9970b3	-0.29968795
232	0xbe1f0fd3	-0.1553338
233	0xbe1ecda5	-0.15508135
234	0xbe81e03d	-0.25366393
235	0xbdf18c10	-0.11794293
236	0xbe3de710	-0.18545175
237	0xbdc3996c	-0.09550747
238	0x3e312913	0.17300825
239	0xbdd50a85	-0.10402397
240	0xbe6baa8a	-0.23014274
241	0x3d419ba0	0.047267556
242	0x3e2e116d	0.16998835
243	0xbd287671	-0.04112858
244	0xbdc9d43e	-0.09854935
245	0x3bcb3edb	0.0062025613
246	0x3e10fd2a	0.14159074
247	0x3e0f74f7	0.14009462
248	0xbe81f45e	-0.2538175
249	0x3d9f484b	0.07777461
250	0xbe26d52d	-0.16292258
251	0xbd14de14	-0.036344603
252	0xbd2d1cca	-0.042263784
253	0xbe348412	-0.17628506
254	0x3d945568	0.072428524
255	0xbe46d89e	-0.1941857

bias f4 [16]
0	0x3f09e3b9	0.538631
1	0x3e1d88e0	0.15384245
2	0x3ef285b8	0.47367644
3	0x3d477b41	0.04870153
4	0xbe0cb3ed	-0.13740511
5	0x3da1bce8	0.07897359
6	0x3e408845	0.18801983
7	0xbf17323a	-0.59061015
8	0x3e45ffa0	0.19335794
9	0xbe984821	-0.2974253
10	0x3e9f825f	0.31154153
11	0xbdfbff3b	-0.12304541
12	0x3e36c941	0.1785021
13	0x3e0056a2	0.12533048
14	0x3da51cd9	0.08062143
15	0x3dbcf178	0.09225744

weight f4 [16, 16]
0	0xbd4cbb77	-0.049983468
1	0xbe5592c2	-0.20856765
2	0x3e870ed6	0.26378506
3	0x3e1e0366	0.15430984
4	0xbd2f0acf	-0.042734917
5	0x3e8e3317	0.27773353
6	0xbd6e8f35	-0.05824204
7	0xbc8b15af	-0.016978113
8	0x3e00970e	0.12557623
9	0x3e85d340	0.26137733
10	0xbd47090e	-0.04859262
11	0x3dcfacb2	0.10140361
12	0xbe1e6f19	-0.15472068
13	0xbc83c79c	-0.016086392
14	0x3e4a1623	0.19735007
15	0x3e39651a	0.18104973
16	0xbdc4c0bd	-0.096070744
17	0x3e07d2b0	0.13263965
18	0xbd795979	-0.060876343
19	0xbdcf58cf	-0.10124361
20	0x3e47e9f4	0.1952284
21	0xbe53db83	-0.20689206
22	0x3e20fb20	0.15720797
23	0x3e54573a	0.207364
24	0xbdff5296	-0.12466924
25	0x3e98b9cc	0.29829252
26	0xbe39d5d1	-0.1814797
27	0xbe43155d	-0.19051118
28	0x3d1b9a3a	0.03798888
29	0x3e1bf62b	0.15230624
30	0x3dff34f7	0.12461274
31	0xbe4d5e67	-0.20055543
32	0xbce883da	-0.028383184
33	0x3d67a434	0.05655308
34	0xbdb28e68	-0.08718568
35	0xbd963867	-0.07334977
36	0xbd3eb931	-0.04656333
37	0xbe0d55c3	-0.13802247
38	0x3da08e78	0.07839674
39	0xbe563c6d	-0.20921488
40	0x3e73d43a	0.23811427
41	0x3c937124	0.017998286
42	0xbd0c2c52	-0.034221955
43	0x3df53034	0.11972085
44	0xbe438634	-0.19094163
45	0xbe0a53b8	-0.13508499
46	0xbdf8048c	-0.12110242
47	0x3e1ccd3a	0.15312663
48	0x3e25b256	0.16181311
49	0x3e2463e3	0.16053729
50	0x3e3ab8cf	0.18234561
51	0x3d9d43e7	0.07678967
52	0x3e041161	0.12897255
53	0x3d1af1a4	0.037828103
54	0x3dc1cad0	0.094625115
55	0x3d35461f	0.044256326
56	0x3df7b20f	0.12094509
57	0xbe6a2dec	-0.2286908
58	0x3e8a4fef	0.2701411
59	0xbe5df104	-0.21673971
60	0x3d6c599d	0.05770265
61	0x3d101cf1	0.03518385
62	0xbe459228	-0.19294035
63	0x3d362e06	0.044477485
64	0x3e1d73b4	0.15376168
65	0x3e292e34	0.16521531
66	0xbe387448	-0.18013108
67	0x3d914b7f	0.07094478
68	0xbd4f1e1f	-0.050565835
69	0x3e6fa4dd	0.23402734
70	0xbe4ef95f	-0.20212315
71	0x3e80f184	0.25184262
72	0x3d14858c	0.036260173
73	0xbd5735be	-0.052541487
74	0xbdcf2842	-0.101151004
75	0x3c9c6bdb	0.019094398
76	0xbd735e7e	-0.059416287
77	0xbe365682	-0.17806438
78	0x3d4e461b	0.050359827
79	0x3da39f63	0.07989385
80	0xbd74bcab	-0.05975024
81	0x3e2b5c37	0.16734396
82	0xbdb7995b	-0.08964797
83	0xbd2b9bd7	-0.041896667
84	0xbdb8552b	-0.090006195
85	0xbd3ec08d	-0.04657035
86	0xbe83c461	-0.25735763
87	0xbe4cea74	-0.20011312
88	0x3d256ff8	0.040389985
89	0xbd4d5ce3	-0.05013741
90	0x3e3c3095	0.18377908
91	0x3d6416c4	0.055685773
92	0x3e23199c	0.15927738
93	0xbe0af4ad	-0.13569899
94	0xbe500a3c	-0.20316404
95	0x3e3aa2b0	0.18226123
96	0x3d6dd1b5	0.05806132
97	0x3d9c05d1	0.07618297
98	0xbe9fd945	-0.3122045
99	0xbd581195	-0.052751143
100	0xbe540efd	-0.20708843
101	0xbe2c2042	-0.1680918
102	0xbda34717	-0.07972544
103	0xbdf59def	-0.11993014
104	0x3d932c8f	0.07186233
105	0x3e99118d	0.29896203
106	0xba83a8a1	-0.0010044762
107	0xbe307e9d	-0.17235799
108	0xbeaf00a1	-0.34180167
109	0x3e769b75	0.2408274
110	0x3d3d4100	0.046204567
111	0x3e17fa80	0.14841652
112	0x3ddec1ec	0.108768314
113	0xbd16f89b	-0.036858182
114	0x3d78c6a6	0.06073632
115	0xbd034d37	-0.03205606
116	0x3e00def2	0.12585047
117	0x3d418987	0.047250297
118	0x3e1b73ce	0.15180895
119	0xbd008623	-0.031377923
120	0x3e74993f	0.23886584
121	0x3e957d2e	0.29197067
122	0xbe0bafd9	-0.136413
123	0x3e2925cd	0.16518326
124	0x3d880681	0.066418655
125	0x3e4d581f	0.20053147
126	0xbe56282c	-0.20913762
127	0x3e202e65	0.15642698
128	0x3f0d6490	0.5523157
129	0xbe6ce88b	-0.23135583
130	0x3e8001a1	0.25001243
131	0xbdc9a646	-0.09846167
132	0xbbd885f2	-0.0066077644
133	0xbc4e613f	-0.012596427
134	0x3e1b0ae4	0.15140873
135	0x3e790a6f	0.24320386
136	0x3d4c13e9	0.049823675
137	0xbd9b8472	-0.07593621
138	0xbe868813	-0.2627569
139	0xbda7c945	-0.08192686
140	0x3e209d4c	0.15685004
141	0x3dd82662	0.10554196
142	0xbecd8111	-0.40137532
143	0x3e6a9958	0.22910058
144	0x3e8e72fc	0.278221
145	0xbdc3792d	-0.09544597
146	0x3e70e493	0.23524694
147	0xbc985909	-0.018597143
148	0xbe1a7a02	-0.15085605
149	0xbdcc7317	-0.09982889
150	0x3deba7a6	0.11506586
151	0x3e7674b4	0.24067956
152	0x3e1852c0	0.14875317
153	0x3f0406a4	0.5157263
154	0xbe41326c	-0.1886689
155	0xbdbcb23f	-0.09213685
156	0xbc6430fb	-0.0139276935
157	0xbdfa00ba	-0.1220717
158	0x3e9b2d1d	0.30307856
159	0xbe405629	-0.18782867
160	0x3e9b194d	0.3029274
161	0xbdea2bcd	-0.114341356
162	0x3bd8bf26	0.0066145835
163	0x3bc4aaa9	0.0060017896
164	0x3e38095b	0.17972319
165	0x3e0d69ed	0.13809939
166	0x3e23a9b1	0.15982701
167	0x3d53a91e	0.051674955
168	0x3e0742dc	0.13209099
169	0xbe28fbd3	-0.16502313
170	0xbe9f1710	-0.31072283
171	0xbe5d8dd0	-0.21636128
172	0x3cb8468d	0.022494579
173	0xbd0db7be	-0.03459906
174	0xbdfc4e21	-0.123195894
175	0x3de7ed34	0.1132454
176	0x3e605cb1	0.21910359
177	0x3e192584	0.14955717
178	0xbda0f366	-0.078589246
179	0xbdb991d6	-0.09061019
180	0xbe65b237	-0.22431265
181	0xbe5c88a7	-0.21536504
182	0x3c8daf76	0.01729558
183	0x3b8960fa	0.0041924687
184	0x3c54fc33	0.012999582
185	0xbe1a44d9	-0.15065326
186	0xbe64888b	-0.22317712
187	0x3e3002a7	0.17188512
188	0xbe7ad254	-0.24494296
189	0x3e496fb9	0.19671525
190	0x3e1e99ee	0.15488407
191	0xbe3263d8	-0.174209
192	0xbdab591f	-0.08366608
193	0x3e5cf64a	0.21578327
194	0xbd56e148	-0.05246094
195	0xbe1ee574	-0.15517217
196	0x3e72544a	0.23664966
197	0xbd296c25	-0.0413629
198	0xbe624790	-0.22097611
199	0x3e72f959	0.23727931
200	0x3d2b13b7	0.04176685
201	0x3e0a726d	0.13520212
202	0xbe0f1beb	-0.13975494
203	0x3dc0d83f	0.09416246
204	0x3cd10ea8	0.025519684
205	0x3e15d72a	0.1463286
206	0xbe3b637f	-0.18299673
207	0xbe01e539	-0.12685098
208	0xbdbbb798	-0.09165877
209	0x3d58efb8	0.05296299
210	0x3e32e18c	0.17468852
211	0xbd61ed3d	-0.05515789
212	0x3e36543e	0.17805573
213	0xbe104e6a	-0.14092413
214	0xbd9077d4	-0.070541054
215	0xbc4e37ca	-0.012586543
216	0x3e4e45df	0.20143841
217	0xbe3c5faf	-0.18395875
218	0x3d67155f	0.056416865
219	0xbd949985	-0.07255844
220	0xbe6bb7bd	-0.2301931
221	0xbd1df814	-0.038566664
222	0x3e86753c	0.26261318
223	0x3e069a5d	0.13144822
224	0xbe16a9bb	-0.14713185
225	0x3e75a154	0.23987323
226	0xbd9e43e1	-0.077277906
227	0xbdaa4d75	-0.08315555
228	0x3e2b5168	0.16730273
229	0xbe60506d	-0.2190568
230	0xbda75c50	-0.08171904
231	0xbe0efada	-0.1396288
232	0xbe06f69a	-0.13180009
233	0xbe732fbd	-0.2374868
234	0x3d6d130e	0.0578795
235	0x3db110bf	0.08645772
236	0xbcb7213d	-0.022354716
237	0x3e209ba1	0.15684368
238	0xbd28bd9d	-0.041196454
239	0xbd84fc72	-0.064934626
240	0xbdf06db7	-0.117396764
241	0x3e30e098	0.17273176
242	0x3e99bceb	0.30026945
243	0x3bdadad9	0.0066789207
244	0x3e3e7a76	0.18601403
245	0xbd821f61	-0.06353641
246	0xbdd6e988	-0.10493761
247	0xbe04813d	-0.12939925
248	0x3e3eed3e	0.18645188
249	0xbe850c6a	-0.25986034
250	0xbdd68036	-0.10473673
251	0xbbc573c8	-0.006025765
252	0x3d144e82	0.036207683
253	0x3dbabbf2	0.09117879
254	0x3e75d7fe	0.24008176
255	0xbe66f07a	-0.22552672

bias f4 [16]
0	0x3e73b5a7	0.23799764
1	0xbe84451b	-0.25833973
2	0xbe101ef5	-0.14074309
3	0xbb9a8b6b	-0.004716327
4	0xbdf96df2	-0.121791735
5	0xbe48e537	-0.19618689
6	0x3e0a14a2	0.13484433
7	0x3b126a91	0.002234135
8	0xbbbdd58f	-0.0057932804
9	0xbe91ddd9	-0.2848957
10	0xbe8d8753	-0.27642307
11	0x3d80910f	0.06277668
12	0xbe1bc9e6	-0.15213737
13	0x3e5501db	0.20801489
14	0x3e176916	0.14786181
15	0x3e10c3d9	0.1413721

weight f4 [16, 16]
0	0x3df1b5ec	0.11802277
1	0xbd4af78a	-0.049552478
2	0xbce8e560	-0.028429687
3	0xbd8ac8f9	-0.06776614
4	0xbe75aaea	-0.2399098
5	0x3ddb4f17	0.107084446
6	0xbd4090e6	-0.047013186
7	0x3cd0c1ca	0.02548303
8	0xbe9d5cf1	-0.3073497
9	0xbe0c3880	-0.13693428
10	0xbc50e918	-0.012750886
11	0x3d917fad	0.0710443
12	0xbca7d418	-0.020486876
13	0xbd49738d	-0.049182463
14	0x3e785afa	0.24253455
15	0x3e824f65	0.25451198
16	0x3e52a4b3	0.2057064
17	0xbe32c0ff	-0.17456435
18	0xbdd06265	-0.10175017
19	0xbc1efb54	-0.009703476
20	0x3d040f50	0.032241166
21	0xbe1261bb	-0.14295094
22	0xbe04a18c	-0.1295225
23	0x3e235654	0.159509
24	0xbe1b3eda	-0.15160695
25	0x3e077802	0.13229373
26	0xbdabaea3	-0.08382919
27	0xbe13502d	-0.14386053
28	0xbe8ac38b	-0.27102312
29	0xbe2c0d29	-0.16801895
30	0xbe552c5e	-0.20817706
31	0x3e3d683d	0.18496795
32	0x3e08042c	0.13282841
33	0xbd3e6041	-0.046478514
34	0xbd94d414	-0.07267013
35	0xbeaaab15	-0.3333365
36	0x3e2adea7	0.16686498
37	0x3e164412	0.14674404
38	0x3da2f0dc	0.079560965
39	0xbe550d0a	-0.20805755
40	0xbe9728bf	-0.29523274
41	0xbe1f7981	-0.15573694
42	0xbc49d340	-0.012318432
43	0x3e436f00	0.19085312
44	0x3e165746	0.1468173
45	0x3ba64501	0.005074144
46	0xbd8dce9f	-0.069241755
47	0xbd74d1de	-0.059770457
48	0xbee372b5	-0.44423452
49	0xbd03653f	-0.032078978
50	0xbe0f1c12	-0.13975552
51	0x3e177881	0.14792062
52	0x3e0ea03c	0.13928312
53	0x3dd2db99	0.10295791
54	0xbe45191a	-0.19247857
55	0x3da774a1	0.08176542
56	0xbdddeee2	-0.10836579
57	0xbeaf2828	-0.34210324
58	0xbd7eabe0	-0.06217563
59	0xbcc08026	-0.023498606
60	0x3e0946be	0.13405892
61	0xbe3a9c84	-0.18223768
62	0x3e2adda2	0.16686109
63	0x3e94801e	0.29003996
64	0xbe357465	-0.17720182
65	0xbdc772ea	-0.09738715
66	0xbdf06722	-0.11738421
67	0x3e8a85a5	0.27055088
68	0x3ddb4b1a	0.10707684
69	0x3e841c6e	0.2580294
70	0xbe1c2cce	-0.15251467
71	0xbc207cb2	-0.009795355
72	0xbdd5cdc8	-0.1043964
73	0xbd7d5c1c	-0.06185542
74	0x3e090ba1	0.13383342
75	0x3dd3d9bf	0.10344266
76	0x3e510772	0.20412996
77	0xbc9d9be4	-0.019239374
78	0x3e69dcb9	0.22838105
79	0x3e0137f2	0.12618998
80	0x3e3be483	0.18348889
81	0xbe098bfc	-0.13432306
82	0x3cc10379	0.023561226
83	0xbd1f0050	-0.038818657
84	0x3dc117d3	0.09428372
85	0x3e666098	0.22497785
86	0x3e8524d0	0.26004648
87	0x3e319ef5	0.17345794
88	0x3e35a17f	0.17737387
89	0xbe10ecdb	-0.14152853
90	0x3cad28fe	0.02113771
91	0x3e42fc5e	0.19041583
92	0x3e5b3959	0.21408595
93	0x3e211a05	0.15732582
94	0xbe5c5987	-0.21518527
95	0x3e613395	0.21992333
96	0xbd84a5d6	-0.06476943
97	0xbd851ecc	-0.06500015
98	0x3c884d4b	0.016638419
99	0xbe15c919	-0.14627494
100	0xbdf3e0f8	-0.11908144
101	0x3e0382f6	0.12842926
102	0xbd5be21c	-0.05368243
103	0xbc87ac41	-0.01656163
104	0x3dfd8055	0.12377993
105	0xbe03c283	-0.12867169
106	0xbdc84395	-0.09778515
107	0x3e6732dd	0.22577997
108	0x3e0c5a52	0.1370633
109	0xbe691d3d	-0.2276506
110	0xbdc28855	-0.094986595
111	0xbe20fe7b	-0.15722077
112	0xbe006d02	-0.12541583
113	0xbdb6b8d9	-0.08921976
114	0x3e3bfffe	0.18359372
115	0xbe36a6ff	-0.17837141
116	0xbd501947	-0.050805356
117	0xbe2b03c8	-0.16700661
118	0xbb86206e	-0.0040932214
119	0x3e13024a	0.14356342
120	0xbc163cae	-0.009169741
121	0x3e11c6ad	0.14235945
122	0x3e33cb7e	0.17558095
123	0x3d8a42cc	0.06751022
124	0x3c656024	0.0139999725
125	0x3e5f9be0	0.21836805
126	0x3e292473	0.1651781
127	0xbe985480	-0.29751968
128	0xbccf03ed	-0.025270427
129	0x3e5caf6a	0.2155129
130	0xbe139135	-0.14410861
131	0x3e2de0ee	0.16980335
132	0xbcbd05c0	-0.02307403
133	0x3e620fa2	0.22076276
134	0xbe54b893	-0.20773534
135	0xbe22321d	-0.15839429
136	0xbc9be3a9	-0.019029455
137	0x3db2bd35	0.087274946
138	0x3d95073b	0.0727677
139	0x3d301638	0.04298994
140	0x3e226a02	0.15860751
141	0x3e02bf18	0.12768209
142	0x3e5f1a7c	0.21787447
143	0x3cb65ebf	0.022261975
144	0xbe910686	-0.2832529
145	0xbe0e8ad6	-0.13920149
146	0x3e3e1fdd	0.18566842
147	0xbe2ce238	-0.1688317
148	0xbd4e412a	-0.050355114
149	0x3e2c4d9d	0.16826482
150	0xbe2a488c	-0.16629237
151	0xbea2728b	-0.31728014
152	0xbe0bdd22	-0.13658574
153	0xbef41938	-0.4767549
154	0xbd859d9b	-0.065242015
155	0xbc701dbd	-0.014655528
156	0xbe784798	-0.24246061
157	0xbe62bede	-0.22143123
158	0xbe6ee7fb	-0.23330681
159	0xbca133d5	-0.019678036
160	0xbec31211	-0.3809972
161	0x3d49ad9c	0.049237832
162	0x3e520bf6	0.20512375
163	0xbe2aee73	-0.16692524
164	0x3d26e28a	0.04074339
165	0xbd9ec0b3	-0.07751598
166	0xbea0d1a1	-0.31409934
167	0x3d717f42	0.058959253
168	0xbecc5a03	-0.39912423
169	0xbe5430c9	-0.20721735
170	0xbe322c02	-0.173996
171	0x3e138d6d	0.14409418
172	0x3e45750e	0.19282934
173	0x3e051650	0.12996793
174	0x39114a89	0.00013856044
175	0x3ccc679b	0.024951747
176	0x3dac9e6f	0.08428656
177	0x3e29e020	0.16589403
178	0x3e5e478d	0.21706982
179	0xbe379d4a	-0.17931095
180	0xbe044c6d	-0.12919779
181	0x3e0957f7	0.13412462
182	0x3dacadba	0.08431573
183	0xbe5b1057	-0.21392952
184	0x3e5b2b67	0.21403275
185	0xbe60e886	-0.219637
186	0x3dec38d8	0.115342796
187	0xbcf87494	-0.030329026
188	0x3ce59117	0.028023286
189	0xbe6e58b1	-0.2327602
190	0x3b6ebc10	0.0036428012
191	0x3e0af80b	0.13571183
192	0xbe1fafe1	-0.15594436
193	0xbe95a120	-0.2922449
194	0x3e6d4c42	0.23173621
195	0x3ccc1c50	0.024915844
196	0x3d5cae48	0.053877145
197	0xbdecdc80	-0.115654945
198	0x3e1d89bc	0.15384573
199	0xbe3b0326	-0.1826292
200	0xbede7179	-0.43445948
201	0xbe86a49c	-0.26297462
202	0xbe773fe7	-0.2414547
203	0xbdaa0229	-0.08301193
204	0xbdca1819	-0.098678775
205	0xbe781d80	-0.24230003
206	0xbe0c12e0	-0.13679075
207	0xbdf1ea01	-0.11812211
208	0xbe399aa7	-0.18125401
209	0xbe4e6838	-0.20156944
210	0x3dbe67c9	0.09297139
211	0xbd84f646	-0.064922854
212	0xbe6d9d56	-0.2320455
213	0x3e1b46bc	0.15163702
214	0xbe75dfbb	-0.24011128
215	0x3e4f22c8	0.20228112
216	0x3d991724	0.07475117
217	0x3e041a02	0.12900546
218	0x3e3a234c	0.18177527
219	0xbd94c9af	-0.072650306
220	0xbcf5c82f	-0.030002682
221	0xbd8d605f	-0.06903147
222	0xbe7f208e	-0.24914762
223	0xbdd08267	-0.10181122
224	0xbeda706f	-0.42663905
225	0xbdf672f2	-0.12033643
226	0x3d96b841	0.073593624
227	0xbe17a96a	-0.1481072
228	0xbe41d659	-0.18929423
229	0xbe34228a	-0.175913
230	0x3d9193c7	0.071082644
231	0xbe762422	-0.24037221
232	0xbe5a3f1f	-0.21313141
233	0xbec276a0	-0.3798113
234	0x3cdd62fa	0.027024735
235	0xbd5c6749	-0.053809438
236	0x3e62bd22	0.22142461
237	0xbe4dba04	-0.2009049
238	0x3e2c7afc	0.1684379
239	0xbdf6dc8f	-0.12053787
240	0xbdac9d2b	-0.08428415
241	0x3e085b2e	0.13316032
242	0xbe4ff641	-0.20308782
243	0xbdd6413f	-0.104616635
244	0xbde33276	-0.11093609
245	0xbe1dab08	-0.15397274
246	0xbe854ec9	-0.2603667
247	0x3e1cd240	0.15314579
248	0x3da56dde	0.08077596
249	0xbd84982d	-0.06474338
250	0x3e6ad384	0.2293225
251	0xbd3c7709	-0.04601196
252	0x3e1e4408	0.1545564
253	0x3d061a25	0.032739777
254	0x3e6179ac	0.2201907
255	0x3e42c5b1	0.19020726

bias f4 [16]
0	0x3f45d999	0.7728515
1	0x3e8bc0c9	0.2729552
2	0x3e9ac588	0.3022883
3	0xbbd502f3	-0.0065005957
4	0xbee8a7a7	-0.4544041
5	0x3ebbf0b6	0.36707085
6	0xbd3988e2	-0.045296557
7	0xbe8984e5	-0.26859203
8	0x3eb1f7f0	0.34759474
9	0x3d4fa736	0.050696574
10	0x3e9f0aa2	0.310628
11	0x3dd7b248	0.10532051
12	0x3e9e8c56	0.30966443
13	0x3dae50c5	0.08511499
14	0x3e8b4e3c	0.27208126
15	0xbde8d037	-0.11367839

weight f4 [32, 16]
0	0xbe6f0c3b	-0.2334451
1	0xbd610488	-0.054935962
2	0xbe670b23	-0.22562842
3	0x3e2ee2d3	0.17078714
4	0xbe6fc983	-0.23416714
5	0xbe2fa6db	-0.17153494
6	0xbe262c57	-0.16227852
7	0xbd129c6c	-0.035793707
8	0x3db71f10	0.089414716
9	0xbde2cdc3	-0.11074402
10	0xbdd8d5de	-0.10587667
11	0x3d137424	0.035999432
12	0x3dc38ab1	0.09547938
13	0x3e55dc65	0.20884855
14	0xbbc078c8	-0.0058737732
15	0x3d02e152	0.031953163
16	0xbda908d2	-0.082536355
17	0x3d9bb3c4	0.07602647
18	0xbde8400b	-0.1134034
19	0x3e341983	0.17587857
20	0x3cf9adeb	0.030478438
21	0xbe6e4301	-0.23267747
22	0xbe692183	-0.2276669
23	0x3dd1bad6	0.10240714
24	0x3e3fa311	0.18714549
25	0xbdc9cdea	-0.09853728
26	0xbd0a4bde	-0.03376376
27	0x3cee84d1	0.029116066
28	0xbd4e330b	-0.050341647
29	0x3e217b20	0.15769625
30	0xbe58d518	-0.21175039
31	0x3d7d8624	0.061895505
32	0xbe516602	-0.20449069
33	0x3e639933	0.2222641
34	0x3d1a9c9b	0.037747007
35	0x3e63baf0	0.2223928
36	0xbd813241	-0.06308413
37	0xbe465077	-0.19366632
38	0xbd909ba0	-0.07060933
39	0xbe052acf	-0.13004611
40	0x3dec546f	0.11539542
41	0xbddf73c1	-0.1091075
42	0xbe04f850	-0.12985349
43	0xbdf72863	-0.1206825
44	0x3e1b817e	0.15186116
45	0x3db40450	0.08789885
46	0xbe4dd1f3	-0.2009962
47	0xbe7e956b	-0.24861686
48	0x3e5c7082	0.21527293
49	0xbe0c4026	-0.13696346
50	0xbdfdba95	-0.12389103
51	0x3d305f12	0.043059416
52	0xbe55de36	-0.20885548
53	0xbe70c110	-0.23511147
54	0x3d850480	0.06494999
55	0x3e0a6eb3	0.13518791
56	0x3e4d6580	0.2005825
57	0xbe3edbda	-0.18638554
58	0x3e1a4008	0.15063488
59	0xbdd115b2	-0.10209216
60	0xbe10325c	-0.1408171
61	0x3d0ceb9d	0.034404386
62	0xbdf5da57	-0.12004536
63	0x3e52d5a4	0.2058931
64	0xbd0b29ed	-0.03397553
65	0xbcb99b62	-0.0226571
66	0x3e308bad	0.17240782
67	0x3da5bbf9	0.080924936
68	0x3e0d13db	0.13777106
69	0xbd4789c1	-0.048715357
70	0xbdd0d477	-0.101967745
71	0x3d74e184	0.05978538
72	0xbe793fe9	-0.24340786
73	0xbcdb0105	-0.026733885
74	0xbe091f17	-0.13390766
75	0x3d8b9e57	0.0681731
76	0xbe8a4fd8	-0.2701404
77	0x3d35fcd3	0.044430565
78	0x3e14f770	0.14547515
79	0xbe6edc34	-0.23326188
80	0xbe3b4340	-0.18287373
81	0xbda8905f	-0.082306616
82	0xbcf905f6	-0.03039835
83	0x3d959669	0.07304079
84	0xbda24876	-0.07923977
85	0x3e1c2320	0.15247774
86	0xbe601408	-0.21882641
87	0xbc866786	-0.016406786
88	0x3e8045f9	0.25053385
89	0xbcbfa85b	-0.023395708
90	0x3d836f79	0.06417746
91	0x3e51dc24	0.20494133
92	0x3e593da4	0.2121492
93	0x3d0c315d	0.034226764
94	0xbe5bb4cb	-0.21455686
95	0x3e374f3a	0.17901316
96	0x3e331e8b	0.1749212
97	0x3ddc9caf	0.107720725
98	0xbe6474bc	-0.22310156
99	0x3e4dc9b3	0.20096473
100	0x3e53fdf0	0.20702338
101	0xbe00d8b5	-0.12582667
102	0x3d5bc99d	0.05365907
103	0xbe295795	-0.16537316
104	0xbe3d8acd	-0.1850998
105	0xbd70b6c1	-0.058768038
106	0x3df6af1c	0.12045118
107	0xbe1a8e37	-0.15093313
108	0x3cff68d4	0.031177916
109	0xbdd6fc8f	-0.104973905
110	0x3cd2132e	0.025643911
111	0x3e69d4c3	0.22835068
112	0xbc420b0d	-0.011843455
113	0xbe11a158	-0.14221704
114	0xbe58e01d	-0.21179242
115	0x3e67f433	0.22651748
116	0x3d7c2e16	0.06156739
117	0xbdb87e3b	-0.090084516
118	0xbe74372a	-0.23849168
119	0x3e4a6c03	0.19767766
120	0xbd446576	-0.047948323
121	0xbd538ad1	-0.051646058
122	0xbe0b639c	-0.13612217
123	0x3dae9fbe	0.08526562
124	0xbd84b0ce	-0.06479035
125	0xbd5fc888	-0.0546346
126	0x3e4fb606	0.2028428
127	0xbe1cf1b3	-0.15326576
128	0x3df7c3ec	0.12097916
129	0x3da79f60	0.08184695
130	0xbe234a21	-0.15946247
131	0xbdedaf32	-0.116056815
132	0x3e6ea204	0.23303992
133	0xbe37c44d	-0.17945977
134	0x3a9412a5	0.001129706
135	0xbe118af8	-0.14213169
136	0x3e1c0371	0.15235688
137	0x3d4acd42	0.049512155
138	0xbcdc2d5e	-0.026877102
139	0x3d937d55	0.072016396
140	0x3e2ea3b1	0.17054631
141	0x3e081a2c	0.13291234
142	0xbcaa4d64	-0.020788856
143	0xbcd94a40	-0.026524663
144	0xbd90135d	-0.07034943
145	0x3dd132a4	0.10214737
146	0x3e0eec41	0.13957311
147	0xbd9e8058	-0.077393234
148	0x3e13b540	0.1442461
149	0xbe69538b	-0.22785775
150	0xbe5a585c	-0.21322769
151	0x3e43aef6	0.19109711
152	0xbb569862	-0.0032744636
153	0x3c2b6849	0.010461875
154	0x3b92e44f	0.004482783
155	0xbdd16bae	-0.102256164
156	0x3edf0e48	0.43565583
157	0x3e2f0194	0.17090446
158	0xbe938680	-0.28813553
159	0x3dddda61	0.10832668
160	0x3c00ce89	0.007861742
161	0x3e64d15c	0.2234549
162	0x3dda40a3	0.1065686
163	0xbd0e20f5	-0.0346994
164	0xbb6b4e54	-0.0035904841
165	0xbd56db09	-0.052454982
166	0x3de26354	0.110541016
167	0x3d6359dd	0.055505622
168	0x3e119429	0.14216675
169	0xbd4e21d4	-0.05032523
170	0x3e23e320	0.1600461
171	0x3ca0253e	0.019549008
172	0xbdadbf7c	-0.08483788
173	0x3dcfeae0	0.10152221
174	0xbd3768a6	-0.044777535
175	0x3d9daa9f	0.07698559
176	0x3e83f377	0.25771686
177	0xbd9201b4	-0.07129231
178	0xbda470ef	-0.08029353
179	0x3dedb740	0.11607218
180	0xbe087307	-0.1332513
181	0xbe5b0b00	-0.21390915
182	0xbd8e7e5c	-0.06957695
183	0x3ccce46c	0.025011264
184	0x3e5835e9	0.21114315
185	0xbec7cac5	-0.39021888
186	0x3dee5ed1	0.116391785
187	0xbdb2ec77	-0.08736508
188	0x3d90cf49	0.070707865
189	0x3d2a93cf	0.041644868
190	0x3df76317	0.12079447
191	0xbd6be221	-0.0575887
192	0x3d4f524b	0.05061559
193	0xbe82b627	-0.25529596
194	0x3db90a57	0.09035175
195	0xbe51cfbe	-0.20489404
196	0xbcc8744d	-0.024469519
197	0x3d2da07a	0.04238937
198	0x3e20f51b	0.157185
199	0x3daa4619	0.08314151
200	0xbd961230	-0.07327688
201	0xbd3a862a	-0.045538105
202	0xbeb46576	-0.3523366
203	0xbd68f9a7	-0.056878712
204	0xbc8d8f3f	-0.01728022
205	0x3e4e3831	0.20138623
206	0xbd895d8f	-0.06707298
207	0xbe28228f	-0.16419433
208	0xbdbb04c8	-0.09131771
209	0x3da41c0a	0.080131605
210	0x3dc8c9f4	0.098041445
211	0x3e8d0990	0.27546358
212	0x3e4c6f4c	0.19964331
213	0x3e3b8b0c	0.18314761
214	0xbe19f773	-0.150358
215	0xbd556b9e	-0.052104585
216	0xbe746ca1	-0.23869564
217	0xbb667788	-0.003516646
218	0xbcdaf447	-0.026727809
219	0x3b83147b	0.004000244
220	0xbe0daaf6	-0.13834748
221	0x3d1382eb	0.036013525
222	0x3dd9c504	0.10633281
223	0x3e6c7080	0.2308979
224	0xbe2338cd	-0.15939637
225	0x3e37d6b6	0.17953
226	0x3e28294e	0.16422006
227	0x3e07f4da	0.13276997
228	0x3d48073e	0.04883503
229	0x3d81b525	0.06333379
230	0x3e7c9c08	0.24668896
231	0x3e5e6bc0	0.21720791
232	0x3de15b1b	0.11003705
233	0xbe3a08e2	-0.18167451
234	0x3e3ce188	0.18445408
235	0xbd9373fe	-0.07199858
236	0x3d8bd912	0.06828512
237	0xbda24e71	-0.07925118
238	0xbc75d969	-0.015005448
239	0xbc05be71	-0.008163081
240	0x3d023f6b	0.03179876
241	0x3db7e2f2	0.08978833
242	0xbb26e952	-0.002546866
243	0xbdbaf333	-0.09128418
244	0xbe29b190	-0.16571641
245	0x3e519394	0.20466453
246	0x3d381802	0.04494477
247	0x3e6a15d2	0.22859886
248	0xbdaf3231	-0.08554495
249	0x3e0b4443	0.13600259
250	0xbe2da490	-0.16957307
251	0xbd08cd78	-0.033399075
252	0x3c649224	0.013950858
253	0xbce97c0f	-0.028501539
254	0xbd7d0f54	-0.061782196
255	0xbd2e8c00	-0.042613983

bias f4 [32]
0	0xbdbdf276	-0.092747614
1	0x3e7cda8b	0.24692743
2	0xbe15ab34	-0.1461609
3	0x3e4cd66c	0.2000367
4	0x3e600116	0.21875414
5	0xbe6a2c99	-0.22868575
6	0x3e211327	0.15729962
7	0xbe838afe	-0.2569198
8	0x3e7d1d6a	0.24718252
9	0xbe8f7c7e	-0.28024668
10	0xbde1e39c	-0.11029741
11	0x3edaeded	0.42759648
12	0xbe549283	-0.20759015
13	0xbea709bb	-0.3262461
14	0xbe3e1148	-0.1856128
15	0xbc11a091	-0.00888838
16	0x3dc7cedd	0.09756253
17	0xbdbc76dd	-0.09202359
18	0x3c5f4d33	0.013629246
19	0x3db1f60d	0.086895086
20	0x3c362ef3	0.011119592
21	0xbdfc6084	-0.123230964
22	0xbea46622	-0.3210917
23	0xbdd98363	-0.10620763
24	0x3e6c8c97	0.23100506
25	0x3e27d108	0.16388333
26	0xbda269e3	-0.079303525
27	0x3e082466	0.13295135
28	0xbe29b8a8	-0.16574347
29	0xbe250041	-0.16113378
30	0x3b05128b	0.0020305242
31	0xbe5d7aac	-0.21628827

weight f4 [32, 32]
0	0x3e251e72	0.16124895
1	0xbe253019	-0.16131629
2	0x3e31f872	0.1737993
3	0xbd9e8b70	-0.07741439
4	0x3d0c5bfe	0.034267418
5	0x3dadfcc5	0.084954776
6	0xbe10fcde	-0.14158961
7	0xbe414087	-0.18872271
8	0x3e1af34e	0.15131876
9	0xbc9f7e2f	-0.019469349
10	0x3dd0e42d	0.10199771
11	0x3dfab29b	0.122410975
12	0xbda74ab5	-0.08168546
13	0x3e25bccc	0.16185302
14	0x3df321c7	0.11871677
15	0xbe26dac7	-0.16294394
16	0x3df4ca4d	0.11952648
17	0x3e11a957	0.14224754
18	0x3d3ae920	0.04563248
19	0xbba0a3fa	-0.00490236
20	0xbd9d6e6a	-0.076870754
21	0x3cb04d6e	0.021521296
22	0x3cce9a31	0.025220009
23	0xbe1ccb8d	-0.15312023
24	0x3e036732	0.12832335
25	0x3dc6772f	0.09690701
26	0xbc84f417	-0.016229672
27	0x3dfbe281	0.122990616
28	0x3d02b60a	0.031911887
29	0xbd89387e	-0.06700228
30	0xbda0cf38	-0.07852024
31	0xbdcb1b26	-0.099172875
32	0x3c1452c2	0.009052934
33	0x3db2a588	0.08722979
34	0xbcb10fc5	-0.021613965
35	0x3de67e75	0.112545885
36	0xbd30faec	-0.043208048
37	0xbd37353c	-0.044728503
38	0xbe17230f	-0.14759468
39	0xbda965a1	-0.08271337
40	0x3ccff1b4	0.025383808
41	0xbe133c1b	-0.14378397
42	0xbb96dd32	-0.0046040053
43	0x3e539808	0.20663464
44	0xbe10245f	-0.14076374
45	0x3dd041e4	0.10168818
46	0xbd81f182	-0.06344892
47	0xbcce4d9b	-0.02518349
48	0x3d40462e	0.04694193
49	0xbe0b09fe	-0.1357803
50	0x3dfe65bf	0.1242175
51	0x3b18e077	0.002332715
52	0xbd8f2230	-0.069889426
53	0x3d1129fe	0.035440437
54	0x3e094e30	0.13408732
55	0xbd34d4b5	-0.044148166
56	0xbcf527d0	-0.02992621
57	0xbd536dec	-0.0516185
58	0xbd041c6b	-0.032253664
59	0x3dd2d21f	0.10293984
60	0xbe4b2ab6	-0.19840512
61	0xbe6c4e81	-0.23076822
62	0x3e05b1d3	0.13056116
63	0xbd710ff2	-0.058853097
64	0x3dcd421d	0.10022376
65	0xbd88f70e	-0.06687747
66	0xbdeaf420	-0.114723444
67	0x3df114ab	0.1177152
68	0x3d86621c	0.06561682
69	0x3d83a9ed	0.06428895
70	0xbd5c6614	-0.053808287
71	0xbe54e68c	-0.20791072
72	0x3db3cf6f	0.08779799
73	0xbe547bb4	-0.20750314
74	0x3d4e4143	0.050355207
75	0xbe188614	-0.14894897
76	0x3e26187e	0.1622028
77	0xbdc26218	-0.09491366
78	0x3e05dcd0	0.13072515
79	0x3dc45d97	0.09588163
80	0xbe1ca9ea	-0.15299192
81	0xbd81e6da	-0.063428596
82	0xbe22746a	-0.15864721
83	0xbdb37980	-0.08763409
84	0x3dfb1d35	0.1226143
85	0x3df872ec	0.121312946
86	0xbe1dfdd0	-0.15428853
87	0xbbadbdeb	-0.005302181
88	0xbd7474c8	-0.059681684
89	0xbca0ce3e	-0.019629594
90	0x3e07ddbe	0.13268182
91	0x3d9f274e	0.07771169
92	0x3db654ab	0.08902868
93	0x3e167bb0	0.1469562
94	0xbe2ea5aa	-0.17055383
95	0x3d9aac44	0.07552388
96	0x3e2b53f5	0.16731246
97	0xbdb38c9b	-0.08767053
98	0xbe0559f9	-0.13022603
99	0x3dc82fc3	0.09774735
100	0xbe08de59	-0.13366069
101	0xbd3b7b1d	-0.045771707
102	0x3e00ac4d	0.12565728
103	0x3c5773a5	0.01315013
104	0xbd54311d	-0.05180465
105	0x3d8b89d3	0.06813397
106	0x3aba744d	0.0014225334
107	0x3cca467e	0.024691816
108	0x3c84dea4	0.016219445
109	0x3e05186a	0.12997594
110	0x3e040ff7	0.12896715
111	0xbcee5403	-0.029092794
112	0x3db507a2	0.088393465
113	0x3bd50786	0.006501141
114	0x3ba62d9c	0.005071355
115	0x3d3d0018	0.046142668
116	0x3ceaf438	0.028680906
117	0xbd7e62ea	-0.06210605
118	0x3e261ac5	0.1622115
119	0xbd1f4224	-0.038881436
120	0x3daaca2a	0.08339341
121	0x3e0f7157	0.1400808
122	0x3d1b317e	0.037888996
123	0xbdd165b0	-0.102244735
124	0xbd83c5b4	-0.06434193
125	0xbd88f128	-0.06686622
126	0x3c8c5eab	0.017134985
127	0xbe1f756a	-0.15572134
128	0xbde5e2d0	-0.11224902
129	0xbe162cf4	-0.14665586
130	0xbdfb9de5	-0.12285975
131	0xbe2944c4	-0.16530138
132	0xbdaaf40a	-0.08347328
133	0xbbf5adec	-0.0074975397
134	0x3da7a190	0.081851125
135	0xbe6eb5e9	-0.2331158
136	0x3db40ebf	0.08791875
137	0x3bcaf990	0.006194301
138	0xbd2a04c2	-0.041508444
139	0x3db7feaf	0.08984124
140	0xbdcb1424	-0.09915951
141	0xbe0f54c6	-0.13997182
142	0xbd81939e	-0.06326984
143	0xbd162f3a	-0.036666133
144	0xbdbf7326	-0.09348135
145	0x3d14d8fb	0.03633974
146	0xbe2a89c3	-0.16654114
147	0x3dae827c	0.08520982
148	0xbe471386	-0.19441041
149	0xbdc9570b	-0.09831055
150	0x3e0dce57	0.13848244
151	0xbde40a45	-0.11134771
152	0xbd8db1dd	-0.0691869
153	0xbe243896	-0.16037211
154	0x3de8ff3f	0.11376809
155	0xbc76f0f1	-0.015072093
156	0xbe12a38a	-0.14320198
157	0xbe3feaa8	-0.18741858
158	0x3e045dc2	0.12926391
159	0xbe20072b	-0.15627734
160	0x3dd03bdb	0.101676665
161	0x3e175fea	0.14782682
162	0xbe1221a3	-0.14270644
163	0x3ddb190f	0.10698139
164	0x3d7a97f9	0.06118009
165	0x3c482b8f	0.012217416
166	0xbd8c89c6	-0.06862216
167	0x3dd44660	0.103649855
168	0xbd29474c	-0.04132776
169	0xbdbb7679	-0.09153456
170	0x3d137230	0.03599757
171	0xbd280745	-0.041022558
172	0x3e10fc38	0.14158714
173	0xbe32ce7a	-0.17461577
174	0xbe47800a	-0.19482437
175	0xbd5b0d61	-0.053479556
176	0x3c9b29e1	0.018940868
177	0x3ded2d4b	0.115809046
178	0x3e0496b1	0.12948109
179	0x3d9bc19a	0.07605286
180	0xbd50e639	-0.051000807
181	0xbd062d35	-0.032757957
182	0xbdb8f029	-0.09030182
183	0xbd9e7216	-0.07736604
184	0x3db5b7df	0.08872961
185	0x3db643e8	0.08899671
186	0x3ca74b80	0.020421743
187	0xbd9253db	-0.071449004
188	0xbd9f0281	-0.077641495
189	0x3d972eff	0.07382011
190	0x3c940a56	0.018071335
191	0xbd4b2eb6	-0.049605094
192	0xbd9e767d	-0.077374436
193	0x3dde2fad	0.10848937
194	0x3cdbdd60	0.026838958
195	0xbe183eae	-0.1486766
196	0xbe02891f	-0.1274762
197	0xbd2da3f7	-0.042392697
198	0x3ca55378	0.020181403
199	0xbd5efe96	-0.05444201
200	0xbd69d129	-0.057084236
201	0xbcd6b93a	-0.02621137
202	0xbe0a0a57	-0.13480507
203	0xbdcca09d	-0.09991572
204	0x3dea3c00	0.11437225
205	0xbca7267b	-0.020404091
206	0x3ba0255c	0.004887266
207	0xbdf8e35b	-0.121527396
208	0x3d8d7933	0.069078825
209	0xb9c438f6	-0.00037426472
210	0x3e1b1b90	0.15147233
211	0x3e1e89cd	0.15482254
212	0x3e1e85f8	0.15480793
213	0xbe0425cb	-0.12905042
214	0x3d3792f5	0.044817884
215	0xbdbcab7e	-0.09212397
216	0x3dfb9600	0.122844696
217	0x3d1e6789	0.038672958
218	0xbccc958b	-0.024973651
219	0x3dc865f5	0.09785072
220	0xbd976d59	-0.07393903
221	0xbe047b95	-0.12937768
222	0x3d002e18	0.03129396
223	0xbdafc008	-0.08581549
224	0x3d9f287c	0.07771394
225	0x3cd9862d	0.026553238
226	0x3da11812	0.07865919
227	0x3e04a909	0.12955107
228	0x3d11e51d	0.03561889
229	0xbe1e6893	-0.1546958
230	0x3df2ac67	0.118492894
231	0xbd2f5869	-0.042808924
232	0xbdf67b66	-0.12035255
233	0xbaae348b	-0.0013290806
234	0xbe1f12c3	-0.15534501
235	0xbce00d08	-0.027349964
236	0xbd338290	-0.043825686
237	0xbc477dbf	-0.012175976
238	0x3dbf27a6	0.09333734
239	0x3dd78165	0.10522727
240	0x3be322eb	0.006931653
241	0x3dd2f84c	0.10301265
242	0xbe1938e4	-0.14963108
243	0x3cdf6d8e	0.02727392
244	0x3e2fe925	0.17178781
245	0xbe170bc1	-0.14750578
246	0x3e00864e	0.12551233
247	0xbda8b830	-0.08238256
248	0xbdf790f0	-0.120881915
249	0xbd920d0c	-0.07131395
250	0x3dc564e8	0.09638387
251	0x3ceb86e0	0.028750837
252	0x3d918a59	0.07106466
253	0x3c9d5355	0.019204775
254	0xbe0951b4	-0.13410074
255	0xbdbfc15c	-0.09363052

bias f4 [32]
0	0x3e5dacc3	0.21647935
1	0xbc47b2ce	-0.012188626
2	0x3e0a5615	0.135094
3	0xbe1468e6	-0.1449314
4	0x3ea215ec	0.3165735
5	0x3e296c3f	0.16545199
6	0xbdefeae5	-0.117147245
7	0xbe0a9bc8	-0.13535988
8	0x3ecdbdcc	0.40183866
9	0x3e89b3ed	0.26895085
10	0xbdc3eea3	-0.09567001
11	0x3ed67b84	0.4189111
12	0x3e53fc9f	0.20701836
13	0x3e40acd5	0.1881593
14	0x3dcac23b	0.09900328
15	0xbb950ab7	-0.0045483964
16	0x3e153492	0.14570835
17	0x3e75a396	0.23988184
18	0xbd2f9ea5	-0.042875905
19	0x3e9fd1c5	0.3121473
20	0x3d8279e0	0.06370902
21	0x3e414b14	0.18876296
22	0xbcb8d4af	-0.022562353
23	0x3d5888d2	0.052864857
24	0xbd311661	-0.043234233
25	0x3e674027	0.22583066
26	0x3e357b95	0.17722924
27	0x3e843c5e	0.25827307
28	0x3e447c2c	0.19187993
29	0x3e79d077	0.2439593
30	0xbd3b3305	-0.045702953
31	0xbe3576e9	-0.17721142
