34layer-model.pkl (torch_old, 681582 bytes, 74 tensors)

weight f4 [16, 4]
0.26266915 -0.61534154 0.06400207 -0.4528135 0.6937264 -1.1914607 0.050054573 0.08794179
-0.7188625 1.7826447 -0.13126253 0.104207076 0.7056834 -0.56268245 -0.04099637 0.37784654
-0.3750336 -0.45593697 0.3658479 0.13396436 0.8969671 -0.5875487 -0.41470644 -0.14917052
0.2978973 -0.66226214 0.1903592 -0.027605962 1.0107162 -0.43129414 -0.041806746 -0.24656196
0.17420805 -0.1412152 -0.21435158 -0.21732746 0.5008462 -0.44628236 0.13177058 -0.040729992
-0.32333907 -0.0014189865 -0.304818 -0.33229163 0.6599549 -1.2271067 0.49336585 -0.06790942
1.0308235 -0.63597506 0.2202424 0.06712246 1.0764459 -1.2073209 -0.13345541 0.5177782
-0.21148276 -0.19587627 -0.37027887 -0.4039718 -0.42972288 -0.00936168 -0.02969491 0.23895942
00000000: 927c 863e 0687 1dbf 8413 833d 2cd7 e7be
00000010: 0e98 313f c981 98bf 0606 4d3d d31a b43d
00000020: 5f07 38bf b42d e43f af69 06be 856a d53d
00000030: aba7 343f f50b 10bf cfeb 27bd 1a75 c13e
00000040: 6704 c0be 9270 e9be 6a50 bb3e f42d 093e
00000050: a39f 653f 9769 16bf 6754 d4be 28c0 18be
00000060: ff85 983e 038a 29bf 86ed 423e e625 e2bc
00000070: 265f 813f 96d2 dcbe 8d3d 2bbd bd7a 7cbe
00000080: 9863 323e b89a 10be fb7e 5bbe 178b 5ebe
00000090: 7537 003f 1f7f e4be deee 063e 7ed4 26bd
000000a0: b38c a5be 49fd b9ba 1b11 9cbe 2122 aabe
000000b0: cef2 283f d511 9dbf 739a fc3e 1814 8bbd
000000c0: 06f2 833f 43cf 22bf 3987 613e 8077 893d
000000d0: fbc8 893f 7e89 9abf 89a8 08be 1d8d 043f
000000e0: f08e 58be ca93 48be 3195 bdbe 64d5 cebe
000000f0: a304 dcbe bb61 19bc bd42 f3bc c7b1 743e

bias f4 [16]
0.25559852 -0.33378795 -0.3891659 -0.026133517 -0.058833197 0.39063004 -0.42580554 -0.31436756
0.36753637 -0.1658944 0.44797835 0.24610367 0.19994487 -0.3445874 -0.41988435 -0.49976414
00000000: cfdd 823e 41e6 aabe c140 c7be f515 d6bc
00000010: 14fb 70bd a900 c83e 2f03 dabe c9f4 a0be
00000020: ba2d bc3e 39e0 29be 6b5d e53e 9a02 7c3e
00000030: 59be 4c3e c26d b0be 15fb d6be 16e1 ffbe

weight f4 [16, 16]
0.09151232 -0.09599779 -0.37063262 -0.03252512 0.123650596 -0.27497098 0.12996839 -0.08149225
0.18271364 -0.15580593 -0.19593234 -0.17966942 0.1581383 0.45558172 0.087795615 -0.054589484
0.16117655 0.21039338 -0.102950536 -0.11739983 -0.10164021 0.21832322 0.09188415 -0.106482364
-0.23942614 -0.09915254 -0.14591616 0.109855756 0.0008225198 -0.083218865 -0.01048984 -0.108782925
0.092543855 -0.03122282 0.8192456 -0.15006453 0.01642063 0.12981725 -0.15016249 0.30618635
-0.08085343 0.09220957 -0.17975812 0.085707866 -0.20832525 0.22195196 0.2259833 -0.118702345
0.03834919 -0.09838541 -0.010017181 0.028220953 0.048938744 0.045845054 0.09560516 -0.4185748
0.027312366 0.15972762 0.1432434 -0.12517373 0.24847618 -0.23032795 -0.12752974 -0.09150774
-0.22014871 -0.07142374 -0.2821065 -0.14107874 0.13653588 -0.074164316 -0.06618699 -0.19978958
0.20729364 0.04065497 0.021584136 0.2266179 0.21996422 -0.2785729 -0.056952313 -0.16315508
0.11437212 -0.018353092 -0.22691897 0.2503187 0.22482051 0.12928966 -0.00729201 -0.0054965215
0.24839877 0.10330153 -0.027539784 -0.11053745 -0.080001436 0.10614956 -0.017138394 0.079002075
0.08070465 0.17678323 -0.19291371 -0.04575971 0.18679245 -0.15419386 0.051659346 -0.19267091
-0.053038053 -0.23849718 0.04666349 0.06385258 0.23649514 0.033131965 -0.17197518 -0.035289068
-0.110343054 0.051742952 -0.1317321 0.10036283 0.15508986 -0.19733948 -0.11464958 0.047084387
0.17910157 0.059908174 -0.09066702 -0.23736516 -0.1315233 -0.07978678 -0.048780266 0.009291467
0.14263919 -0.038707227 -0.46945414 -0.17044805 -0.22081904 0.30930907 -0.1620285 -0.051758505
-0.11877351 -0.20634645 0.17179441 -0.103977494 0.013987084 -0.11027828 -0.15070283 0.10378908
-0.24899136 0.16165777 -0.51147586 -0.20460796 0.2084136 0.10108987 0.19063434 -0.3294652
-0.17650044 0.08826776 -0.05628277 0.18567543 0.085322075 0.10339958 0.0682636 0.16922978
0.1078093 -0.11578014 -0.24644724 -0.0130810235 0.07671237 0.17491448 -0.29578146 -0.46316558
0.16075401 0.18295622 0.22056955 0.22865388 0.2852457 -0.21458955 -0.075527735 0.22016017
-0.13109222 -0.037998583 0.40899378 -0.2088739 -0.12772278 -0.11138239 -0.17022775 -0.17996363
-0.21884623 -0.17220633 -0.107987955 -0.001220222 0.030804459 -0.1793338 0.06567899 0.08689745
-0.16961007 0.18377836 -0.53730285 0.18794027 -0.24817266 -0.16112761 -0.07611078 0.28991193
-0.027997663 0.24925266 0.09563692 0.027962893 -0.26098186 0.08114552 -0.11727039 0.016876403
0.04963852 -0.104409456 -0.4036285 -0.1361521 0.032777313 0.112609446 -0.011569017 0.24421442
0.08892886 0.2727189 -0.020122146 -0.11735331 -0.27265492 0.022329856 -0.01278315 0.15587932
-0.13077277 -0.035332896 -0.16043366 0.34740368 0.20879246 -0.14003919 -0.08704621 0.44911894
-0.004307618 -0.03584899 -0.07091765 0.25739345 -0.18030766 -0.31680086 0.08769179 0.15951125
0.14570847 -0.14463688 -0.23425548 -0.10944506 0.08980956 -0.054233212 -0.050468583 -0.075409204
0.14992209 0.16752921 0.20115449 0.19090566 0.1488264 0.115416676 -0.16100292 -0.04608359
00000000: d06a bb3d 7d9a c4bd 8fc3 bdbe 0f39 05bd
00000010: 863c fd3d ffc8 8cbe 6f16 053e 69e5 a6bd
00000020: 4919 3b3e 978b 1fbe 7da2 48be 43fb 37be
00000030: 02ef 213e 0242 e93e 30ce b33d 3999 5fbd
00000040: 770b 253e 5d71 573e bbd7 d2bd 526f f0bd
00000050: be28 d0bd 1f90 5f3e c22d bc3d 6d13 dabd
00000060: 202c 75be 7d10 cbbd 0c6b 15be 0efc e03d
00000070: 5f9e 573a a76e aabd 94dd 2bbc 95c9 debd
00000080: a287 bd3d 00c7 ffbc 14ba 513f 84aa 19be
00000090: 8f84 863c d0ee 043e 32c4 19be 75c4 9c3e
000000a0: 7c96 a5bd 5fd8 bc3d 8312 38be 9b87 af3d
000000b0: 3753 55be 6047 633e 2b68 673e 371a f3bd
000000c0: 0a14 1d3d 4a7e c9bd 1a1f 24bc a12f e73c
000000d0: fe73 483d 06c8 3b3d a3cc c33d 704f d6be
000000e0: 2fbe df3c a38f 233e 66ae 123e 8b2d 00be
000000f0: 8a70 7e3e 17db 6bbe 2897 02be 6968 bbbd
00000100: aa6e 61be 9c46 92bd 4370 90be f276 10be
00000110: 10d0 0b3e 76e3 97bd 0b8d 87bd a495 4cbe
00000120: c944 543e d385 263d 37d1 b03c 860e 683e
00000130: 4d3e 613e 1ba1 8ebe d446 69bd 2012 27be
00000140: ee3b ea3d 3959 96bc 725d 68be c629 803e
00000150: 5937 663e 8264 043e d0f1 eebb 2a1c b4bb
00000160: 3f5c 7e3e c18f d33d 1d9b e1bc 7561 e2bd
00000170: cbd7 a3bd f164 d93d d165 8cbc d7cb a13d
00000180: 7b48 a53d aa06 353e 2c8b 45be 896e 3bbd
00000190: 8546 3f3e ffe4 1dbe c098 533d 864b 45be
000001a0: 6e3e 59bd 9b38 74be 3722 3f3d 24c5 823d
000001b0: c82b 723e 62b5 073d 431a 30be 458b 10bd
000001c0: 8afb e1bd 6bf0 533d c8e4 06be 078b cd3d
000001d0: e0cf 1e3e 5c13 4abe 66cd eabd 8fdb 403d
000001e0: 6766 373e 4662 753d a1af b9bd da0f 73be
000001f0: 0bae 06be 4067 a3bd d1cd 47bd 3d3b 183c
00000200: 0210 123e 788b 1ebd 4b5c f0be ef89 2ebe
00000210: 631e 62be c25d 9e3e cdea 25be ba00 54bd
00000220: 873f f3bd 7c4c 53be e0ea 2f3e 27f2 d4bd
00000230: 152a 653c 94d9 e1bd d851 1abe 5f8f d43d
00000240: 97f7 7ebe 9d89 253e 15f0 02bf c084 51be
00000250: 606a 553e 3508 cf3d a635 433e aaaf a8be
00000260: 88bc 34be bac5 b43d c388 66bd b321 3e3e
00000270: 57bd ae3d 29c3 d33d c9cd 8b3d 924a 2d3e
00000280: 1fcb dc3d 231e edbd aa5c 7cbe ca51 56bc
00000290: 601b 9d3d c81c 333e ab70 97be 0a24 edbe
000002a0: b39c 243e e058 3b3e fcdc 613e 3e24 6a3e
000002b0: b90b 923e 5dbd 5bbe 49ae 9abd ab71 613e
000002c0: 0a3d 06be 67a4 1bbd a267 d13e 0ae3 55be
000002d0: c3c9 02be 731c e4bd 2f50 2ebe 6348 38be
000002e0: 3a19 60be db56 30be ca28 ddbd dbef 9fba
000002f0: a259 fc3c 48a3 37be b582 863d 4af7 b13d
00000300: 43ae 2dbe 6530 3c3e ae8c 09bf 6a73 403e
00000310: f920 7ebe a3fe 24be f8df 9bbd 566f 943e
00000320: 5b5b e5bc 173c 7f3e 4add c33d 7012 e53c
00000330: 6a9f 85be 9f2f a63d 752b f0bd 6240 8a3c
00000340: c351 4b3d a0d4 d5bd 65a8 cebe 756b 0bbe
00000350: 8141 063d c89f e63d f98b 3dbc 5813 7a3e
00000360: 5620 b63d d0a1 8b3e 33d7 a4bc ef56 f0bd
00000370: 6d99 8bbe 1aed b63c 6b70 51bc d49e 1f3e
00000380: 4ce9 05be 3ab9 10bd b948 24be e5de b13e
00000390: b1cd 553e 6f66 0fbe 4945 b2bd ebf2 e53e
000003a0: eb26 8dbb 64d6 12bd 463d 91bd 13c9 833e
000003b0: 92a2 38be b933 a2be c197 b33d eb56 233e
000003c0: 9a34 153e b11b 14be abe0 6fbe bb24 e0bd
000003d0: 13ee b73d a523 5ebd 25b8 4ebd 2470 9abd
000003e0: 2d85 193e c78c 2b3e 71fb 4d3e c67c 433e
000003f0: f365 183e 945f ec3d f3dd 24be 25c2 3cbd

bias f4 [16]
-0.12501091 0.23407017 0.12777023 0.18305597 0.24774763 -0.14656962 -0.035734892 -0.24154909
0.07969813 0.025151983 -0.22295746 -0.10199308 -0.1307391 -0.047350664 0.15372038 0.09966393
00000000: dc02 00be 17b0 6f3e 33d6 023e 0673 3b3e
00000010: 8eb1 7d3e 5916 16be c05e 12bd a558 77be
00000020: c638 a33d 880b ce3c f64e 64be bfe1 d0bd
00000030: 78e0 05be c5f2 41bd e068 1d3e 9a1c cc3d

weight f4 [16, 16]
0.037489954 -0.12019016 -0.07211472 0.20797864 0.07044029 0.043204166 0.13371131 -0.27726513
0.12451146 0.21138874 0.24025428 -0.14507098 -0.08863467 0.17074376 -0.21020372 -0.064428024
-1.286808 0.048266597 -1.6342584 0.24596809 0.18131922 -0.18274713 0.24442405 -0.010513519
0.23646475 -0.15790248 0.20729984 -0.6075974 -0.10985345 -0.15743701 -0.17228393 -0.86714494
0.09837869 -0.014871931 0.047356904 -0.09666506 0.22933376 0.047711276 0.11626534 0.1435841
-0.083228625 -0.14395717 0.14398238 -0.21547893 0.15592065 0.23074976 0.082838774 0.13956061
0.016868971 -0.22264965 -0.033861864 0.15050529 0.14286867 -0.1234107 0.009532204 0.1545961
0.09008373 -0.21647313 0.26404044 -0.20395254 -0.14901426 0.14385734 0.13615389 0.15872677
0.16271791 0.097909674 -0.1405471 -0.09114247 0.1370481 -0.04105316 -0.12433138 -0.18225016
0.23768677 -0.113147 -0.11410796 -0.18834731 -0.18211009 -0.066779494 -0.013811012 0.053903364
-0.020106671 0.048715286 -0.07713335 0.19723819 0.058032323 -0.20389241 0.18939927 -0.19601355
-0.20529994 -0.049335632 0.2691394 0.21708906 -0.09048992 -0.1290651 0.124140464 -0.2492701
0.1790489 -0.04801575 0.106433906 -0.048831098 0.06244368 0.20820062 -0.0822111 0.077639386
-0.05086397 0.23724622 0.24160513 0.13396418 -0.16159357 -0.17636907 0.00088816875 -0.19274773
-0.16592409 -0.054472055 -0.62640053 0.19734721 0.23604257 0.27452943 -0.14992853 -0.09197819
0.21124867 0.034010485 -0.13888659 0.06802619 -0.37324685 -0.40400448 -0.2686971 0.13136113
0.11422042 0.021299904 -0.23603912 -0.03132458 -0.0019980404 -0.1900093 -0.11400518 -0.063413516
0.09819911 0.16975269 -0.14166008 0.13488361 0.111883596 -0.12474251 -0.029774731 0.024693258
-0.07161104 -0.043118764 -0.081684485 -0.10695952 -0.1861913 0.093950704 0.1765569 -0.16179341
0.0129652815 -0.17632604 -0.18746649 -0.0050254287 -0.24968745 -0.22518754 -0.21279952 0.13815032
-0.09532953 -0.12738203 0.093900226 0.22498967 0.23418668 -0.19648331 -0.21407764 -0.148424
-0.023675622 -0.12273262 -0.14572197 -0.095547125 -0.06542407 -0.018539788 0.19916579 -0.21140401
-0.21554789 -0.010965933 -0.016614476 0.21674268 0.079971224 -0.02713071 0.13468014 -0.06428364
0.06934967 0.033121683 0.06881528 -0.19359563 -0.015015321 0.057242908 -0.11813862 0.020989899
-0.21781228 0.15426168 -0.29421732 0.08297137 0.2285708 0.2591903 0.09569033 -0.16318804
-0.13532469 0.07347616 0.066585064 -0.06400803 -0.29371428 0.015192906 -0.18659255 0.13884154
-0.67487186 0.17019856 -0.75682664 0.038206454 -0.06652624 0.04119868 -0.1893905 0.15341637
0.24343187 0.21083367 0.19191916 -0.13463973 0.24190313 0.22613804 0.11268499 -0.28094947
-0.23111281 -0.1861923 -0.15660176 -0.15138327 -0.08854676 0.05925149 0.09740062 0.010323242
-0.13277146 0.14753649 -0.15211286 -0.18844129 0.16088444 0.18374047 -0.13092834 -0.11217825
-0.15716884 -0.19866028 -0.13170333 -0.18223082 -0.012167102 0.110004425 0.02871999 -0.22933818
0.15011291 -0.15480515 -0.033459794 0.20151627 0.09059735 0.20692973 0.15124558 0.13736711
00000000: 118f 193d 4226 f6bd e2b0 93bd 5af8 543e
00000010: 0043 903d daf6 303d 9eeb 083e b2f5 8dbe
00000020: ddff fe3d 4a76 583e 3805 763e 7d8d 14be
00000030: 1886 b5bd 74d7 2e3e a53f 57be d7f2 83bd
00000040: 20b6 a4bf 32b3 453d 612f d1bf 0fdf 7b3e
00000050: bfab 393e 1022 3bbe 4c4a 7a3e e540 2cbc
00000060: d123 723e 30b1 21be 6946 543e 818b 1bbf
00000070: d8fa e0bd 2b37 21be 336b 30be 36fd 5dbf
00000080: c47a c93d 66a9 73bc 50f9 413d 55f8 c5bd
00000090: 78d6 6a3e e66c 433d 861c ee3d b607 133e
000000a0: c573 aabd 8269 13be 1e70 133e 82a6 5cbe
000000b0: aaa9 1f3e aa49 6c3e 60a7 a93d fae8 0e3e
000000c0: cc30 8a3c 45fe 63be bdb2 0abd 0f1e 1a3e
000000d0: 2a4c 123e c0be fcbd f62c 1c3c 714e 1e3e
000000e0: d27d b83d 22ab 5dbe 4f30 873e efd8 50be
000000f0: 3297 18be 574f 133e ed6b 0b3e 4589 223e
00000100: 869f 263e de84 c83d 94eb 0fbe e7a8 babd
00000110: 5656 0c3e 5c27 28bd 73a1 febd c99f 3abe
00000120: 2964 733e 9db9 e7bd 6fb1 e9bd 1ede 40be
00000130: 117b 3abe b0c3 88bd 9547 62bc c6c9 5c3d
00000140: bfb6 a4bc ae89 473d 17f8 9dbd cff8 493e
00000150: 4db3 6d3d 2cc9 50be e2f1 413e c7b7 48be
00000160: 263a 52be 2914 4abd a4cc 893e 984c 5e3e
00000170: c752 b9bd a429 04be 5b3d fe3d a940 7fbe
00000180: 9858 373e 2aac 44bd 05fa d93d 1e03 48bd
00000190: f2c4 7f3d 8b32 553e 4b5e a8bd 6601 9f3d
000001a0: bd56 50bd acf0 723e 5667 773e e82d 093e
000001b0: c978 25be 189a 34be ffd3 683a a95f 45be
000001c0: 01e8 29be 171e 5fbd c95b 20bf 6315 4a3e
000001d0: 25b5 713e 1f8f 8c3e dd86 19be 105f bcbd
000001e0: 9251 583e 944e 0b3d 4938 0ebe 5151 8b3d
000001f0: 361a bfbe add9 cebe ab92 89be 8883 063e
00000200: 65ec e93d 237d ae3c 3db4 71be 344e 00bd
00000210: 8ef1 02bb cc91 42be 8c7b e9bd f2de 81bd
00000220: 9d1c c93d a6d3 2d3e 570f 11be ee1e 0a3e
00000230: 3a23 e53d 0079 ffbd 23ea f3bc 8449 ca3c
00000240: cfa8 92bd 4d9d 30bd 324a a7bd 980d dbbd
00000250: efa8 3ebe 3a69 c03d 55cb 343e 2cad 25be
00000260: 556c 543c d08e 34be 37f7 3fbe 5aac a4bb
00000270: 11ae 7fbe 9097 66be 1ee8 59be 4777 0d3e
00000280: 213c c3bd 6f70 02be c34e c03d b163 663e
00000290: a2ce 6f3e ec32 49be 2b37 5bbe 76fc 17be
000002a0: 61f3 c1bc 3d5b fbbd 2438 15be 36ae c3bd
000002b0: 0efd 85bd c1e0 97bc 1ef2 4b3e 4b7a 58be
000002c0: 96b8 5cbe 75aa 33bc 151b 88bc cbf1 5d3e
000002d0: f4c7 a33d 3941 debc 97e9 093e 24a7 83bd
000002e0: 3307 8e3d 9aaa 073d 07ef 8c3d ef3d 46be
000002f0: d202 76bc 8a77 6a3d a9f2 f1bd 02f3 ab3c
00000300: 2f0a 5fbe c6f6 1d3e a7a3 96be e5ec a93d
00000310: 770e 6a3e 97b4 843e 4bf9 c33d c41a 27be
00000320: 8e92 0abe ab7a 963d c05d 883d a416 83bd
00000330: b861 96be abeb 783c 1e12 3fbe 7a2c 0e3e
00000340: 67c4 2cbf 8848 2e3e 64bf 41bf 5f7e 1c3d
00000350: e93e 88bd f2bf 283d 95ef 41be 2e19 1d3e
00000360: 3446 793e c8e4 573e 7586 443e ffde 09be
00000370: 74b5 773e bb90 673e 63c7 e63d 9cd8 8fbe
00000380: d6a8 6cbe 32a9 3ebe 365c 20be 3704 1bbe
00000390: 0158 b5bd b1b1 723d fa79 c73d d122 293c
000003a0: 3ef5 07be ce13 173e 79c3 1bbe c1f6 40be
000003b0: e4be 243e 7626 3c3e 1412 06be b6bd e5bd
000003c0: def0 20be 9a6d 4bbe 3ddd 06be b79a 3abe
000003d0: 8658 47bc 004a e13d 2f46 eb3c a1d7 6abe
000003e0: 33b7 193e 3e85 1ebe 230d 09bd 485a 4e3e
000003f0: 1a8b b93d 63e5 533e 1fe0 1a3e f7a9 0c3e

bias f4 [16]
-0.18998158 -0.042238135 -0.10442694 -0.041342862 -0.06766356 -0.04896977 -0.22875434 0.11643095
-0.08715951 0.12638752 0.045300394 0.12621124 0.026306033 -0.10357479 -0.21412945 -0.024600664
00000000: 888a 42be e501 2dbd cbdd d5bd 2257 29bd
00000010: 3193 8abd 8794 48bd 943e 6abe 5a73 ee3d
00000020: af80 b2bd bb6b 013e e88c 393d 853d 013e
00000030: c07f d73c 051f d4bd c044 5bbe 5587 c9bc

weight f4 [16, 16]
-0.13514891 0.20819545 -0.14230792 -0.21939854 0.09531496 -0.1123418 -0.044822104 -0.16251625
-0.034709934 0.20137736 -0.016834067 -0.031054651 0.06026185 -0.04048868 -0.061936617 -0.17008275
0.13725206 0.1884492 -0.17282239 -0.19648685 0.16717042 0.17255151 -0.014618301 -0.0817157
-0.05111027 0.06069463 0.18766549 0.055676423 0.21847403 -0.22921875 0.016751902 0.09464315
-0.040118854 -0.22277112 -0.21580192 0.09220979 0.047148533 -0.10254555 -0.10772081 -0.20104173
-0.22329861 -0.046019174 0.08289784 0.10864995 0.079587735 -0.10555461 0.045982067 0.11679703
0.17285703 0.10371968 -0.23851584 -0.13900347 -0.045818485 0.07007254 0.127949 0.4143129
0.2260914 0.07903165 -0.15938923 -0.022478636 -0.21182814 0.15361886 0.17627695 0.07104487
0.119757764 -0.15344295 -0.14871232 0.20169541 -0.08966702 0.0485955 -0.19398226 0.069261335
-0.061574366 -0.14828706 0.05437023 0.010729211 -0.063140176 -0.12004822 0.099793494 0.22923121
0.18003 -0.041737087 -0.24008876 -0.0479584 0.15089642 0.002444796 -0.017882215 -0.001066961
-0.22064309 0.0084061045 0.15852503 0.09250997 -0.15151133 -0.13127051 0.18278441 -0.014431424
-0.026770525 0.12652676 0.100528866 -0.04576614 -0.08152751 0.13057859 0.031638093 -0.051783454
-0.045856588 0.123198114 0.036547128 -0.07498156 0.09408897 0.21432257 0.087846085 0.026682787
0.09192091 -0.14130512 -0.24467993 0.049098067 0.09593217 -0.124869466 -0.17550035 -0.17012227
-0.20579049 0.22390503 -0.20731269 -0.035010297 -0.16610925 -0.23183103 -0.09117668 -0.19217037
-0.13492694 -0.07511042 -0.12460437 0.05137466 0.081914514 0.061933022 0.09788738 -0.38716847
-0.07165348 -0.08027723 -0.05274883 0.17956297 0.1282959 -0.24784714 0.041470405 -0.06885672
-0.18429859 0.04138678 -0.078998186 -0.024797266 0.14059074 0.25715917 -0.21163946 -0.21158834
0.026815826 -0.17962453 -0.020436877 -0.124803916 0.22598705 -0.1740464 -0.0604357 0.062434535
0.1590126 -0.23542705 -0.34878448 0.025947984 0.06981755 0.25810888 -0.14144813 -0.1352321
0.09596089 -0.16179663 -0.1648796 -0.24500972 -0.042428862 0.041775018 -0.18732837 0.21939549
-0.113373674 0.14566712 0.3790938 0.12024139 0.08163013 -0.24095501 0.02693934 -0.1115931
0.2456934 -0.11055814 0.038122322 0.023384595 0.07002958 -0.21259442 0.0852776 0.18262774
-0.025459087 -0.16142166 -0.03595084 0.08329926 0.13423915 0.110885024 0.09688263 0.009516152
-0.052325428 0.25262973 0.0263918 -0.09686049 0.08661878 -0.10090643 0.1580086 0.025836678
-0.15551728 0.04549557 0.005460747 -0.23400065 0.08545468 0.1675508 -0.16276656 -0.16449805
-0.08690619 0.12253708 0.07024121 -0.20740287 -0.1504613 -0.21811405 0.1991499 0.14455657
-0.09101501 -0.11767591 0.7006044 -0.038406055 -0.03440597 -0.17776154 0.1509973 -0.24634472
-0.20743008 0.22180486 0.14561647 0.18660231 -0.043229435 0.27924576 0.0366794 0.050947417
0.15985598 -0.16321874 -0.14288577 0.13514923 0.09768084 -0.22652994 0.19275275 -0.031016948
-0.1936328 0.057023816 -0.075541146 -0.14970088 0.1501656 -0.22132747 0.07054376 -0.04240996
00000000: 7a64 0abe 3031 553e 2bb9 11be 03aa 60be
00000010: 7d34 c33d 7513 e6bd 6297 37bd a96a 26be
00000020: 012c 0ebd de35 4e3e 99e7 89bc 5366 febc
00000030: 21d5 763d 75d7 25bd 40b1 7dbd 2c2a 2ebe
00000040: ce8b 0c3e d4f8 403e 5af8 30be d933 49be
00000050: b92e 2b3e 58b1 303e 9981 6fbc 905a a7bd
00000060: 0159 51bd ef9a 783d 622b 403e f60c 643d
00000070: a8b7 5f3e 52b8 6abe 493b 893c 45d4 c13d
00000080: ab53 24bd 1d1e 64be 2efb 5cbe 7dd8 bc3d
00000090: d21e 413d 6703 d2bd ba9c dcbd e2dd 4dbe
000000a0: 64a8 64be 9a7e 3cbd 58c6 a93d dd83 de3d
000000b0: e5fe a23d 042d d8bd b157 3c3d 4833 ef3d
000000c0: 6f01 313e fc6a d43d 7f3d 74be ed56 0ebe
000000d0: 2aac 3bbd 3182 8f3d 1005 033e d220 d43e
000000e0: 8184 673e 59db a13d ee36 23be 1e25 b8bc
000000f0: 7ae9 58be 434e 1d3e f281 343e f97f 913d
00000100: 8f43 f53d 2620 1dbe 0b48 18be 3e89 4e3e
00000110: 58a3 b7bd 130c 473d 49a3 46be e3d8 8d3d
00000120: 6735 7cbd 90d8 17be 51b3 5e3d 93c9 2f3c
00000130: a34f 81bd d7db f5bd 8860 cc3d 96bb 6a3e
00000140: c959 383e 82f4 2abd d4d9 75be 0770 44bd
00000150: 9784 1a3e df38 203b b97d 92bc 45d9 8bba
00000160: 43f0 61be c2b9 093c 6354 223e de75 bd3d
00000170: c925 1bbe c76b 06be d62b 3b3e c871 6cbc
00000180: dc4d dbbc 3b90 013e 14e2 cd3d 4775 3bbd
00000190: e5f7 a6bd 65b6 053e f296 013d e31a 54bd
000001a0: 1ed4 3bbd 4b4f fc3d 71b2 153d ef8f 99bd
000001b0: b8b1 c03d 6077 5b3e a6e8 b33d dc95 da3c
000001c0: 0841 bc3d 4ab2 10be 608d 7abe 0e1b 493d
000001d0: 1678 c43d 90bb ffbd 5db6 33be 8834 2ebe
000001e0: beba 52be 5c47 653e c749 54be f566 0fbd
000001f0: 8b18 2abe 1d65 6dbe d7ba babd 4fc8 44be
00000200: 4a2a 0abe 7ed3 99bd 9330 ffbd 3c6e 523d
00000210: ccc2 a73d 7bad 7d3d 2e79 c83d f23a c6be
00000220: 0fbf 92bd 6368 a4bd 280f 58bd 5bdf 373e
00000230: 0060 033e a4cb 7dbe dfdc 293d c104 8dbd
00000240: c5b8 3cbe 2f85 293d cdc9 a1bd a323 cbbc
00000250: 05f7 0f3e 5eaa 833e 04b8 58be 9daa 58be
00000260: ddac db3c 7eef 37be 3d6b a7bc 3299 ffbd
00000270: 2669 673e 3839 32be 6d8b 77bd 5bbb 7f3d
00000280: 33d4 223e ca13 71be e193 b2be de90 d43c
00000290: 81fc 8e3d d926 843e c7d7 10be 497a 0abe
000002a0: 2587 c43d 04ae 25be 33d6 28be d4e3 7abe
000002b0: e3c9 2dbd 481c 2b3d 02d3 3fbe 36a9 603e
000002c0: 7530 e8bd c329 153e 9518 c23e 1e41 f63d
000002d0: b32d a73d e9bc 76be e4af dc3c ec8a e4bd
000002e0: 0d97 7b3e 4e6c e2bd 2726 1c3d 0d91 bf3c
000002f0: ab6b 8f3d 5ab2 59be 06a6 ae3d c402 3b3e
00000300: 938f d0bc b84b 25be 3041 13bd cd98 aa3d
00000310: fd75 093e b017 e33d 666a c63d a2e9 1b3c
00000320: 3053 56bd af58 813e 9e33 d83c cb5e c6bd
00000330: 3065 b13d 08a8 cebd 02cd 213e 71a7 d33c
00000340: ec3f 1fbe 9059 3a3d 11f0 b23b de9d 6fbe
00000350: dd02 af3d 7092 2b3e 47ac 26be 2d72 28be
00000360: dffb b1bd b8f4 fa3d a0da 8f3d 6b61 54be
00000370: 8712 1abe 4a59 5fbe f4ed 4b3e a306 143e
00000380: 1466 babd 1100 f1bd cf5a 333f ab4f 1dbd
00000390: 46ed 0cbd 1f07 36be 099f 1a3e ca41 7cbe
000003a0: 8d68 54be d020 633e 7c1c 153e ad14 3f3e
000003b0: 5911 31bd 4df9 8e3e 233d 163d 3dae 503d
000003c0: 49b1 233e d022 27be a650 12be 8f64 0a3e
000003d0: e40c c83d 77f7 67be fa60 453e 4117 febc
000003e0: ad47 46be ce91 693d 51b5 9abd 304b 19be
000003f0: 03c5 193e aba3 62be 3f79 903d 11b6 2dbd

bias f4 [16]
-0.24510884 0.12797217 0.06509613 -0.065052584 -0.012429803 0.1629335 -0.123890154 0.19387601
0.15219873 0.23494245 0.19135237 0.036435146 0.15414958 0.0538718 -0.17782576 0.2362957
00000000: d0fd 7abe 230b 033e 1f51 853d 4a3a 85bd
00000010: 5fa6 4bbc 0ad8 263e 1fba fdbd 6f87 463e
00000020: fcd9 1b3e c194 703e e0f1 433e 053d 153d
00000030: 63d9 1d3e ada8 5c3d f517 36be 80f7 713e

weight f4 [16, 16]
-0.09410037 -0.04096956 0.104881406 -0.005912516 -0.24163538 0.081152715 -0.27017233 0.17974594
0.23232405 -0.15304548 0.19650581 0.07824969 0.1693098 0.17690329 0.1072403 -0.023931444
-0.23691608 0.187183 0.15238298 -0.15679926 -0.0646104 0.14111109 -0.082722664 0.012925907
-0.043233234 0.13799907 0.1293305 -0.37813404 -0.24202128 0.12840262 -0.55104446 0.15810573
0.17257437 0.17997666 0.20468883 0.17813 -0.18381736 0.027997604 0.10317865 -0.07205974
0.17657797 -0.11837882 -0.21061124 -0.4063008 0.08866849 0.04795557 -0.49787697 -0.23125099
0.21625285 -0.021933256 -0.20677999 -0.25888306 -0.19195929 -0.013317193 -0.19758278 -0.23346159
0.17092644 0.14256825 0.006838239 -0.09857324 -0.017955361 -0.037459232 0.09918732 -0.07579793
0.2431968 -0.1803761 -0.06092082 0.119877405 -0.17917605 0.035157084 -0.101047456 -0.113864556
0.104411535 0.23344715 0.0065325806 -0.06259431 -0.036592208 0.14675926 0.14196862 0.065838754
0.04577428 0.12922233 0.13552403 -0.28950888 0.19475134 0.25263068 0.05185102 0.1088293
-0.088910654 -0.038188256 0.11009584 -0.1806144 -0.06556332 -0.12703261 0.015490637 0.17184971
-0.06584373 0.17331813 0.15615574 -0.2854915 0.19641659 0.2220222 -0.18017589 -0.09699865
0.1153177 -0.03872022 -0.03405413 0.08755072 0.03025672 -0.09796649 -0.21958046 0.14651357
-0.090083174 -0.22573319 -0.20447841 -0.677058 -0.22922213 0.023046559 0.006159141 -0.17038259
-0.23548652 0.21317196 -0.10180555 -0.0053238613 0.0911645 0.15468141 0.12545496 -0.22588457
0.21597375 -0.033119313 0.15699492 0.010287266 -0.15774886 -0.23299235 -0.05293242 0.03910992
-0.030609943 -0.07465731 -0.10936717 -0.15926702 -0.1838599 -0.096328445 -0.0003390118 0.23100689
-0.15031675 -0.15033036 -0.16767408 0.10740745 -0.029967997 -0.2392665 -0.2091999 0.1613696
-0.03466839 0.16083045 0.06047291 0.18770424 -0.15142426 0.107851036 0.09390222 0.17110848
0.18285577 -0.17398886 -0.22111814 -0.22479838 -0.090268545 0.1504694 -0.08048813 0.036982838
-0.08621375 -0.19077225 -0.11203162 -0.07506672 0.13149777 -0.16694781 0.058904182 0.110664435
-0.2273042 0.18957403 0.03382267 -0.30415273 0.056175306 -0.23251642 0.15918294 -0.06274927
0.08253038 -0.15319046 -0.12688799 0.071614884 0.11655148 -0.06352698 0.11246649 0.050209213
0.054924875 -0.19159314 0.19385006 -0.14632064 0.20392546 0.11267144 0.068561375 -0.13799934
0.17873226 0.21380424 0.173155 -0.1341391 -0.0618196 -0.21449213 0.013461737 -0.1675716
-0.23147397 0.24657163 -0.14036462 0.002268086 0.062048703 -0.07701585 -0.19737701 0.19874877
0.06065485 0.15788543 -0.04627053 0.15330993 0.17912923 -0.07970132 -0.6338406 -0.103724025
-0.22186251 -0.016101882 -0.20619868 0.057127398 0.14512002 -0.05924652 -0.17251724 -0.06639947
-0.0832807 0.13540986 0.13404638 -0.22261654 -0.07814653 0.13837703 0.045369603 -0.23377205
0.067822546 0.10404237 0.0030579204 0.22526659 0.07466216 -0.09023254 0.0635257 0.1549402
-0.2433989 -0.017949067 0.18551429 0.074719205 -0.10556419 -0.118124425 -0.2256776 -0.17873847
00000000: b2b7 c0bd b3cf 27bd 10cc d63d c7bd c1bb
00000010: 446f 77be 6533 a63d 0754 8abe 520f 383e
00000020: 5be6 6d3e f4b7 1cbe d238 493e 6041 a03d
00000030: 8c5f 2d3e 2326 353e cda0 db3d e00b c4bc
00000040: 219a 72be e6ac 3f3e 490a 1c3e fc8f 20be
00000050: 7552 84bd 6d7f 103e 806a a9bd 2fc7 533c
00000060: 5515 31bd a14f 0d3e 376f 043e c99a c1be
00000070: 6dd4 77be fa7b 033e 4011 0dbf 78e6 213e
00000080: 56b7 303e cd4b 383e f399 513e b667 363e
00000090: 9e3a 3cbe 3b5b e53c 544f d33d 0f94 93bd
000000a0: dbd0 343e 9870 f2bd 79aa 57be a906 d0be
000000b0: d397 b53d 0f6d 443d bbe9 febe 0fcd 6cbe
000000c0: 6371 5d3e 5fad b3bc 22be 53be 528c 84be
000000d0: fa90 44be 5b30 5abc 2453 4abe 8e10 6fbe
000000e0: 5707 2f3e 69fd 113e 4e13 e03b c4e0 c9bd
000000f0: 1f17 93bc da6e 19bd b922 cb3d f23b 9bbd
00000100: 9508 793e 83b4 38be 1c88 79bd 4982 f53d
00000110: ed79 37be e000 103d f8f1 cebd d231 e9bd
00000120: b7d5 d53d c50c 6f3e 420f d63b 7231 80bd
00000130: b6e1 15bd 0f48 163e 3960 113e 78d6 863d
00000140: d07d 3b3d dc52 043e d0c6 0a3e 823a 94be
00000150: e56c 473e cf58 813e bc61 543d e5e1 de3d
00000160: ca16 b6bd 4a6b 1cbd ee79 e13d fbf2 38be
00000170: 1046 86bd d614 02be 71cc 7d3c 5ff9 2f3e
00000180: 14d9 86bd 4f7a 313e 4ae7 1f3e f12b 92be
00000190: 6e21 493e ca59 633e 0780 38be 3aa7 c6bd
000001a0: b02b ec3d 1899 1ebd 587c 0bbd cb4d b33d
000001b0: f1dc f73c a8a2 c8bd b3d9 60be a707 163e
000001c0: 877d b8bd 9a26 67be ca62 51be ac53 2dbf
000001d0: 35b9 6abe 23cc bc3c 9fd2 c93b c678 2ebe
000001e0: 6123 71be c049 5a3e 6e7f d0bd c973 aebb
000001f0: 74b4 ba3d ce64 1e3e 4477 003e 494e 67be
00000200: 3928 5d3e 1ea8 07bd 47c3 203e ec8b 283c
00000210: eb88 21be 8c95 6ebe aacf 58bd b931 203d
00000220: b4c1 fabc efe5 98bd e5fb dfbd e516 23be
00000230: c545 3cbe d947 c5bd 65bd b1b9 128d 6c3e
00000240: a2ec 19be 34f0 19be c1b2 2bbe 70f8 db3d
00000250: 727f f5bc 4702 75be 8038 56be 133e 253e
00000260: 7100 0ebd bdb0 243e 71b2 773d 8a35 403e
00000270: f60e 1bbe 01e1 dc3d cf4f c03d 1037 2f3e
00000280: 8b3e 3b3e 232a 32be cb6c 62be 8c31 66be
00000290: b7de b8bd a714 1a3e f6d6 a4bd 517b 173d
000002a0: d690 b0bd cd59 43be d670 e5bd 95bc 99bd
000002b0: 5aa7 063e 5ef4 2abe 8345 713d 09a4 e23d
000002c0: 6fc2 68be b21f 423e a489 0a3d e8b9 9bbe
000002d0: 1418 663d c918 6ebe da00 233e b082 80bd
000002e0: b005 a93d f6dd 1cbe edee 01be d3aa 923d
000002f0: 8bb2 ee3d 6f1a 82bd d554 e63d 2da8 4d3d
00000300: e8f8 603d fe30 44be a180 463e 14d5 15be
00000310: d6d1 503e 49c0 e63d e869 8c3d b34f 0dbe
00000320: 9705 373e 80ef 5a3e 8b4f 313e c35b 09be
00000330: 8d36 7dbd d3a3 5bbe 9e8e 5c3c e497 2bbe
00000340: 8307 6dbe 467d 7c3e bebb 0fbe 2ba4 143b
00000350: c826 7e3d 7cba 9dbd 331d 4abe cc84 4b3e
00000360: 3871 783d b8ac 213e 2b86 3dbd 47fd 1c3e
00000370: a76d 373e 723a a3bd 6143 22bf 436d d4bd
00000380: ed2f 63be 18e8 83bc bf25 53be 6bfe 693d
00000390: 589a 143e 7bac 72bd 5ca8 30be 72fc 87bd
000003a0: 128f aabd e2a8 0a3e 7443 093e 97f5 63be
000003b0: 4a0b a0bd b5b2 0d3e 7ad5 393d f161 6fbe
000003c0: 8ce6 8a3d 2b14 d53d 6467 483b 49ac 663e
000003d0: 79e8 983d d7cb b8bd c319 823d a5a8 1e3e
000003e0: 903d 79be ec09 93bc 75f7 3d3e 6206 993d
000003f0: 0a32 d8bd 38eb f1bd 0718 67be 3807 37be

bias f4 [16]
0.21258014 0.16979681 -0.079323046 -0.13733433 0.109562404 0.030926617 0.16317324 -0.09854902
-0.2109762 -0.21267202 0.06320441 -0.191129 0.2610183 -5.4320517e-06 -0.24349636 -0.047711823
00000000: 9cae 593e 37df 2d3e 1f74 a2bd 5fa1 0cbe
00000010: 4162 e03d d159 fd3c e316 273e 12d4 c9bd
00000020: 250a 58be b2c6 59be 5071 813d 52b7 43be
00000030: 31a4 853e f844 b6b6 1c57 79be 796d 43bd

weight f4 [16, 16]
0.056738794 -0.041118268 -0.19915086 -0.09547069 0.22496 -0.19559059 0.09818766 -0.18115541
-0.08180493 0.013986153 -0.11020466 0.22609353 0.069787376 -0.13216521 -0.13600613 -0.1882686
-0.16647407 -0.041548584 0.108822 0.28466216 0.23137161 -0.23225118 -0.15585735 0.003918722
-0.052831866 0.29331207 0.11320333 0.121337295 0.070973285 0.27838865 0.24131292 -0.2622291
-0.21886036 -0.15517549 -0.004665515 0.14258122 -0.21796297 0.09541382 0.21889526 0.05216411
0.15988785 0.078881525 0.112333946 -0.0059396327 -0.24355048 -0.14315207 -0.069076054 0.15068765
-0.06508368 0.040062964 -0.20845564 0.15645006 -0.0033306787 -0.12806967 -0.059413023 0.13585828
0.019597482 0.10408789 0.123832636 -0.11768043 -0.028993255 -0.18703492 0.2210754 0.20726483
0.1279099 0.13425645 -0.25629625 0.00069644453 -0.24826908 0.2616563 0.0014564763 -0.15216196
-0.21934548 -0.24222031 -0.05274892 0.19208416 -0.064113766 0.025113767 -0.10888197 0.012780987
0.0012653146 -0.17407033 -0.1084642 -0.016072558 0.071404256 -0.14393826 -0.24685925 -0.1701684
-0.064907834 -0.026045056 -0.22059281 0.017889831 0.017967282 -0.20115294 -0.1809092 0.19703607
-0.17515746 -0.05150176 -0.21245162 -0.088273615 0.19634928 -0.04556595 -0.23084126 0.042445976
0.16601068 -0.16061567 0.12143934 -0.19008857 -0.084892005 -0.19385761 0.19722347 0.017037408
-0.111785285 -0.06227948 -0.13353117 0.09281374 -0.11311922 0.11539006 0.03928071 -0.08373935
0.19438204 -0.16131598 0.22022036 0.14013343 0.18541117 0.07836355 0.17047323 -0.16289993
-0.02223437 -0.08089258 0.041458633 0.19906296 -0.20122781 0.02370513 -0.1769648 0.03913674
0.051998056 -0.11517586 -0.14578304 -0.034608204 0.03512359 0.100569464 -0.07280892 0.21466783
0.13858064 -0.20581892 -0.22262435 0.086483024 0.07008535 0.24064395 0.26427785 0.13792165
0.05054343 -0.15411128 0.046358936 -0.02649785 0.071574695 0.04579726 0.15675148 -0.24882215
0.14259565 -0.14718068 0.660035 -0.066786505 -0.104139164 0.055711742 0.20133436 0.2493839
-0.17807142 0.030000981 -0.10057085 0.27887923 -0.26928055 0.103929676 0.025398454 0.099412955
0.05967767 0.007393739 0.31689838 0.15748745 0.080720596 -0.06420105 0.10014428 -0.15750714
-0.2145263 -0.0913937 0.15360804 0.040320303 -0.08918612 -0.096912906 -0.018132625 -0.23002365
0.037876684 0.06675819 -0.057617623 0.06400612 0.012828467 0.052522272 0.15454797 -0.28070915
0.1981992 -0.15178193 -0.029709281 -0.025342869 0.1516206 -0.102288276 -0.083142444 -0.09950983
-0.16153415 0.25851944 0.5368959 0.0396574 0.06984321 -0.15924802 0.03509843 0.33680874
-0.06812133 0.1286645 0.17965852 0.105559 -0.24382746 0.23366937 -0.20517845 0.21458165
-0.050458226 0.07769105 0.2601272 -0.028402586 0.07139491 -0.039904155 -0.2665042 0.18380445
-0.23297511 -0.2229074 -0.0572095 -0.12156238 -0.07839104 -0.05199786 -0.12847169 -0.11717095
0.068426386 -0.09582011 -0.3046077 -0.029093271 -0.00034367896 0.0017001599 -0.18049513 -0.17980713
-0.20058623 -0.059749424 0.21567032 0.21906187 0.1668803 0.08069752 0.001091785 -0.17156558
00000000: f066 683d a16b 28bd 34ee 4bbe 2386 c3bd
00000010: ea5b 663e e648 48be 9d16 c93d ce80 39be
00000020: 5889 a7bd 2d26 653c fbb2 e1bd 1085 673e
00000030: afec 8e3d 5156 07be 3145 0bbe 7cc9 40be
00000040: 2e78 2abe d92e 2abd 12de de3d 3dbf 913e
00000050: aeec 6c3e 41d3 6dbe 1299 1fbe 9f68 803b
00000060: 3a66 58bd 002d 963e 26d7 e73d b07f f83d
00000070: 715a 913d f588 8e3e bc1a 773e e542 86be
00000080: ee1c 60be 53e6 1ebe 2de1 98bb d000 123e
00000090: af31 5fbe 5268 c33d 1426 603e 09aa 553d
000000a0: a4b9 233e a38c a13d 570f e63d 40a1 c2bb
000000b0: 4c65 79be 7596 12be bf77 8dbd dd4d 1a3e
000000c0: 984a 85bd 1019 243d 6575 55be 7234 203e
000000d0: 8447 5abb b224 03be 125b 73bd 6f1e 0b3e
000000e0: e68a a03c 082c d53d f79b fd3d 7002 f1bd
000000f0: 4383 edbc 1586 3fbe 9761 623e 3b3d 543e
00000100: d0fa 023e 867a 093e 4339 83be 9a91 363a
00000110: 403a 7ebe d1f7 853e 3ce7 be3a 58d0 1bbe
00000120: 1a9c 60be 9a08 78be 400f 58bd b6b1 443e
00000130: 144e 83bd 63bb cd3c 83fd debd 5867 513c
00000140: ead8 a53a 7e3f 32be 7a22 debd 99aa 83bc
00000150: 653c 923d 8d64 13be acc8 7cbe a040 2ebe
00000160: 66ee 84bd 715c d5bc 15e3 61be b28d 923c
00000170: 1f30 933c 09fb 4dbe 4340 39be d3c3 493e
00000180: 7a5c 33be 82f3 52bd eb8c 59be ccc8 b4bd
00000190: c90f 493e 5da3 3abd a761 6cbe d5db 2d3d
000001a0: b4fe 293e 6f78 24be 30b5 f83d 94a6 42be
000001b0: dcdb adbd 9c82 46be f3f4 493e 0992 8b3c
000001c0: afef e4bd c518 7fbd 65bc 08be 2115 be3d
000001d0: 0dab e7bd a051 ec3d cfe4 203d 897f abbd
000001e0: 160c 473e 0430 25be 7281 613e 237f 0f3e
000001f0: 6ddc 3d3e 127d a03d 8990 2e3e 3dcf 26be
00000200: da24 b6bc 02ab a5bd 87d0 293d 29d7 4b3e
00000210: aa0e 4ebe 4331 c23c 4336 35be d94d 203d
00000220: eafb 543d 52e1 ebbd 2648 15be 55c1 0dbd
00000230: c1dd 0f3d 5df7 cd3d d81c 95bd e2d1 5b3e
00000240: 15e8 0d3e 32c2 52be a3f7 63be 031e b13d
00000250: e888 8f3d 5e6b 763e 6d4f 873e 553b 0d3e
00000260: a106 4f3d 59cf 1dbe dee2 3d3d 0512 d9bc
00000270: c195 923d e895 3b3d 7683 203e 3ccb 7ebe
00000280: 9804 123e 88b6 16be 0ef8 283f 5dc7 88bd
00000290: ea46 d5bd ff31 643d 982a 4e3e 7e5e 7f3e
000002a0: 5b58 36be 9ec4 f53c 17f8 cdbd 42c9 8e3e
000002b0: 24df 89be 15d9 d43d 6b10 d03c 0599 cb3d
000002c0: 9370 743d 2e47 f23b 8140 a23e 6444 213e
000002d0: d750 a53d d77b 83bd 7218 cd3d 8d49 21be
000002e0: c8ac 5bbe 9f2c bbbd 6d4b 1d3e e726 253d
000002f0: 36a7 b6bd 467a c6bd df8a 94bc 528b 6bbe
00000300: 9524 1b3d 85b8 883d 7500 6cbd a415 833d
00000310: 7e2e 523c 9821 573d d341 1e3e 1cb9 8fbe
00000320: bbf4 4a3e b96c 1bbe e160 f3bc d99b cfbc
00000330: 6e42 1b3e 847c d1bd 9646 aabd cfcb cbbd
00000340: 3569 25be a95c 843e 0272 093f cc6f 223d
00000350: f509 8f3d ea11 23be 5fc3 0f3d 3272 ac3e
00000360: 3283 8bbd a0c0 033e 67f8 373e 512f d83d
00000370: e8ad 79be 0647 6f3e 4d1a 52be 4bbb 5b3e
00000380: 49ad 4ebd 7c1c 9f3d 642f 853e 8aac e8bc
00000390: 7f37 923d 8a72 23bd 3d73 88be 3c37 3c3e
000003a0: 0791 6ebe d641 64be 8254 6abd b2f5 f8bd
000003b0: 7b8b a0bd b5fb 54bd 158e 03be 53f7 efbd
000003c0: 2223 8c3d 553d c4bd 8af5 9bbe 0355 eebc
000003d0: cf2f b4b9 e6d7 de3a b7d3 38be 5c1f 38be
000003e0: 7a66 4dbe d0bb 74bd aed8 5c3e c151 603e
000003f0: abe2 2a3e be44 a53d 3a1a 8f3a e3ae 2fbe

bias f4 [16]
0.061393324 0.16843018 -0.10933049 -0.09437945 0.021812707 0.1602641 0.14873512 0.23743129
-0.06530474 0.11446426 0.12044669 0.21492358 0.2330088 0.06870817 -0.01141945 -0.1603005
00000000: 9177 7b3d f678 2c3e aae8 dfbd 034a c1bd
00000010: 90b0 b23c 461c 243e 054e 183e 3021 733e
00000020: 7ebe 85bd 3d6c ea3d c1ac f63d ed14 5c3e
00000030: dc99 6e3e deb6 8c3d a518 3bbc d025 24be

weight f4 [16, 16]
-0.21821235 0.009977126 0.21303783 -0.16199993 0.20286335 -0.16265292 -0.038628966 -0.2329293
-0.06499114 -0.25786886 -0.24962233 -0.020433992 0.22335833 0.09383049 -0.23056094 0.057626188
0.22259636 -0.21750012 -0.2649514 -0.12896 -0.023442274 -0.14704804 0.007266643 0.19586924
0.16590124 -0.19153573 -0.40595743 0.051500194 0.21440126 -0.4991741 -0.07523635 -0.15213178
-0.14056167 0.014003918 -0.01979684 0.060540065 -0.19177465 0.052488647 -0.09750202 0.038903836
0.20449488 0.13976946 -0.45509404 -0.35624856 -0.10962555 -0.29370698 -0.20206459 -0.19551575
-0.22258535 -0.024965772 -0.24924594 -0.24648021 -0.17092566 -0.19206099 0.20101236 0.21430314
0.16670692 0.028633386 -0.118444644 0.09608079 0.016741512 -0.05225988 0.14028506 0.041381475
-0.06340071 -0.15516768 0.24006692 0.04625878 -0.18269242 0.19445387 -0.18747549 -0.0053210105
0.19729559 -0.125146 0.028682753 -0.20971562 0.09237598 -0.20031808 0.1394789 -0.17620194
0.03983688 -0.08300936 -0.058915168 -0.16888344 0.012809444 0.12666756 -0.00026590403 -0.061063085
0.060705606 0.11193194 -0.2610686 0.02346012 -0.20203312 -0.20735517 0.06935948 -0.13775663
-0.07772052 0.14699674 -0.089682154 -0.17021278 0.022789657 0.21301502 -0.22848378 0.19383512
-0.25373805 -0.14494415 -0.091544375 -0.0018735374 -0.03720168 -0.14719643 0.012720754 -0.01489216
0.095208704 0.020774964 0.078318544 0.058649734 0.09380752 0.19154575 0.16987382 0.12356276
-0.07265036 -0.11467711 -0.3268627 -0.19296901 0.08304101 -0.5754977 -0.2158943 -0.0743463
-0.23641819 -0.08511002 -0.2369642 0.03477939 -0.17813936 0.017412499 0.19299306 -0.14671314
-0.010438221 0.11993324 -0.07312362 -0.02915204 -0.07470602 -0.1143686 0.18183304 -0.13675787
0.22778308 -0.17128204 0.09445936 0.1070049 0.0443107 0.049899194 0.19954373 -0.15320922
0.1396218 -0.024398666 0.053933416 -0.092971876 0.008691636 -0.3313295 0.015645817 0.04618925
0.00723252 -0.04436322 0.10122411 -0.07469794 -0.14944032 -0.004660112 -0.14764144 -0.21665281
-0.065832816 -0.18739302 -0.1532841 -0.2834811 -0.14011271 -0.036681224 0.10609638 -0.18051536
0.06962366 -0.18211794 0.1710597 0.16745058 0.14779025 0.00018171158 -0.029996373 0.031066747
0.043421138 -0.077749215 -0.2095367 -0.1380168 0.15418226 -0.34695956 0.14916003 0.0053893365
0.04390869 -0.23093201 0.01337476 0.081585154 0.21478133 0.08625319 0.23222925 -0.19188625
-0.030133301 -0.06683427 -0.40259156 -0.14951916 -0.16159584 -0.3281615 -0.09697108 -0.075101234
0.1681014 -0.24212262 0.13799708 0.20958696 -0.015748516 -0.07099979 0.038114123 -0.029034624
-0.009132238 0.13855568 -0.53906184 -0.11729554 0.06903193 -0.46917278 -0.2280549 0.09965403
-0.19737384 0.12455031 0.1638953 -0.18520996 0.082450256 -0.22079884 0.22134687 -0.038774263
-0.26336578 0.21144225 0.10091587 -0.13768898 0.18632215 -0.08430802 -0.15519588 -0.089018665
0.22612688 0.059381474 -0.12384776 -0.10790062 -0.24358279 -0.15950659 0.118156776 -0.055343654
0.010336516 -0.15587188 -0.21609786 -0.19889419 -0.14474244 -0.18541057 0.09112209 0.208916
00000000: 0f73 5fbe 1977 233c 9726 5a3e 4fe3 25be
00000010: 69bb 4f3e 7d8e 26be 6839 1ebd 0585 6ebe
00000020: 131a 85bd 6307 84be ff9c 7fbe 3065 a7bc
00000030: 0cb8 643e 332a c03d 2b18 6cbe 7009 6c3d
00000040: 4df0 633e 5ab8 5ebe b6a7 87be 170e 04be
00000050: 030a c0bc c393 16be 051d ee3b f291 483e
00000060: 04e2 293e f121 44be a7d9 cfbe def1 523d
00000070: 018c 5b3e bf93 ffbe 8415 9abd 6fc8 1bbe
00000080: 66ef 0fbe b070 653c fc2c a2bc dcf8 773d
00000090: 9360 44be 56fe 563d 24af c7bd a159 1f3d
000000a0: 1b67 513e ba1f 0f3e 1602 e9be 3666 b6be
000000b0: 5c83 e0bd c360 96be 05ea 4ebe 4835 48be
000000c0: 6aed 63be 0585 ccbc 543a 7fbe 4f65 7cbe
000000d0: 2307 2fbe a3ab 44be 2fd6 4d3e 4872 5b3e
000000e0: 38b5 2a3e 9090 ea3c 1b93 f2bd 01c6 c43d
000000f0: 7f25 893c 750e 56bd e3a6 0f3e 9f7f 293d
00000100: 3bd8 81bd 47e4 1ebe 1ad4 753e d979 3d3d
00000110: b913 3bbe ea1e 473e 93f9 3fbe df5b aebb
00000120: db07 4a3e 4626 00be 18f8 ea3c b1bf 56be
00000130: 9e2f bd3d 2f20 4dbe 8fd3 0e3e 486e 34be
00000140: ff2b 233d d000 aabd 0851 71bd c8ef 2cbe
00000150: b4de 513c 24b5 013e 0969 8bb9 491d 7abd
00000160: 71a6 783d 933c e53d c9aa 85be 702f c03c
00000170: c5e1 4ebe ea54 54be 580c 8e3d 1310 0dbe
00000180: f02b 9fbd 5086 163e 47ab b7bd 424c 2ebe
00000190: 60b1 ba3c 9c20 5a3e a7f7 69be b77c 463e
000001a0: f4e9 81be 3d6c 14be 9e7b bbbd 7c91 f5ba
000001b0: ca60 18bd a9ba 16be b66a 503c 3ffe 73bc
000001c0: c8fc c23d 4230 aa3c 7965 a03d b43a 703d
000001d0: 281e c03d 9224 443e 67f3 2d3e 790e fd3d
000001e0: b6c9 94bd d5db eabd 8c5a a7be ab99 45be
000001f0: 6811 aa3d d153 13bf 6513 5dbe df42 98bd
00000200: 9c17 72be 2a4e aebd bea6 72be d574 0e3d
00000210: 2a6a 36be a8a4 8e3c f99f 453e f83b 16be
00000220: 1205 2bbc 8f9f f53d d6c1 95bd 42d0 eebc
00000230: 78ff 98bd 163a eabd 7132 3a3e 410a 0cbe
00000240: f83f 693e 8f64 2fbe e973 c13d 6325 db3d
00000250: 237f 353d 1963 4c3d 3155 4c3e e1e2 1cbe
00000260: 04f9 0e3e b6df c7bc 49e9 5c3d 0a68 bebd
00000270: 5d67 0e3c 05a4 a9be a82b 803c f030 3d3d
00000280: c6fe ec3b 35b6 35bd 964e cf3d 3cfb 98bd
00000290: e206 19be dab3 98bb 512f 17be 3cda 5dbe
000002a0: 5bd3 86bd f5e3 3fbe 82f6 1cbe 6f24 91be
000002b0: b579 0fbe 0d3f 16bd 0f49 d93d 05d9 38be
000002c0: d996 8e3d 207d 3abe 462a 2f3e 2a78 2b3e
000002d0: 5456 173e d589 3e39 f4ba f5bc b17f fe3c
000002e0: 5dda 313d fb3a 9fbd ca90 56be 4754 0dbe
000002f0: f4e1 1d3e afa4 b1be 68bd 183e 0899 b03b
00000300: 99d9 333d 7179 6cbe cf21 5b3c 1e16 a73d
00000310: a3ef 5b3e 83a5 b03d 81cd 6d3e d47d 44be
00000320: 1dda f6bc 68e0 88bd 7b20 cebe 8d1b 19be
00000330: 6179 25be c904 a8be c698 c6bd adce 99bd
00000340: c622 2c3e feee 77be 1b4f 0d3e f79d 563e
00000350: 0803 81bc 5768 91bd 8e1d 1c3d 05da edbc
00000360: 629f 15bc 8ae1 0d3e f5ff 09bf a538 f0bd
00000370: 9d60 8d3d 6a37 f0be 3987 69be 6917 cc3d
00000380: 5e1c 4abe 3c14 ff3d 2bd4 273e aea7 3dbe
00000390: aedb a83d 1719 62be c1a8 623e c3d1 1ebd
000003a0: e1d7 86be 5184 583e fbac ce3d 57fe 0cbe
000003b0: 3ccb 3e3e afa9 acbd abeb 1ebe 6b4f b6bd
000003c0: ce8d 673e fd39 733d e5a3 fdbd 00fb dcbd
000003d0: c46d 79be b255 23be 2efc f13d 07b0 62bd
000003e0: 7e5a 293c e19c 1fbe c248 5dbe ebaa 4bbe
000003f0: 5d37 14be 45dc 3dbe 389e ba3d 13ee 553e

bias f4 [16]
0.0953014 -0.21171682 0.078366175 0.1342369 0.17853431 -0.11491952 0.111653686 -0.20477776
-0.01308736 0.13355525 -0.037141923 -0.14921667 -0.094345525 0.26734427 0.14276719 0.025313495
00000000: 612d c33d 4bcc 58be 727e a03d 6675 093e
00000010: b3d1 363e ed5a ebbd b0aa e43d 43b1 51be
00000020: 5e6c 56bc b5c2 083e 2122 18bd 41cc 18be
00000030: 3a38 c1bd 59e1 883e 9031 123e 3f5e cf3c

weight f4 [32, 16]
0.034058303 -0.009552203 -0.033869237 -0.1956675 0.20586225 -0.22067569 0.1824645 -0.09263624
-0.23926418 -0.17974181 -0.12052025 -0.13872197 0.11627371 0.053841498 -0.030757379 -0.17235376
-0.009578096 0.19006296 -0.20547536 -0.10527798 0.00587881 0.24628943 0.04670311 -0.20887108
0.04221115 0.21066137 0.04405491 0.15279192 -0.047677364 -0.32171145 -0.22876386 -0.10673119
-0.1774027 -0.0011044579 -0.33242673 -0.01902171 -0.044979457 0.21678227 -0.010815958 0.15644637
0.20656154 0.1616873 -0.11503557 -0.1238782 0.17798178 0.042798016 -0.24565373 0.1898672
0.12094292 0.21185163 -0.1601652 -0.018709635 -0.14465472 0.15718563 0.020115502 -0.21553658
-0.023464277 0.029818075 -0.023975687 -0.20268959 -0.059104357 -0.11738305 -0.09435536 0.10137204
0.1795651 0.18828374 -0.25747493 -0.0666955 0.15168284 -0.0135280015 0.006357603 0.06884685
-0.15651423 -0.23985733 -0.038101535 0.02168939 0.12033755 -0.069719724 -0.12898466 0.14559755
-0.20834303 -0.24137522 0.072033815 -0.09847246 0.08857213 -0.097191975 0.019945284 -0.09686967
0.2110332 -0.20536508 0.19350079 0.22891231 0.11904422 -0.043429866 0.13968432 -0.05059043
-0.06613607 -0.11749365 -0.08711488 -0.08630552 0.0144584635 0.09507926 -0.16425464 0.0014164947
-0.035418745 0.033429768 -0.014383121 -0.055197038 -0.07702811 0.27407828 -0.042366732 -0.22015324
-0.0014112883 0.1148259 0.19213341 -0.10361688 -0.122070596 0.009285221 -0.25855872 0.10473482
0.14263505 -0.17896578 0.043883964 0.12739229 0.10973203 -0.14707303 -0.17891157 -0.1044461
0.16578777 0.06254746 -0.122959465 -0.045772463 -0.058773633 0.099284604 -0.2299414 0.14567436
-0.1471142 -0.0748394 -0.17888142 -0.16997263 -0.07370428 -0.20166183 0.021772139 -0.028070932
-0.1314218 -0.10717752 0.040723175 -0.13177416 -0.19621655 -0.044844277 -0.22745633 -0.028256118
-0.24296613 -0.16931872 -0.06910015 -0.039727554 0.17401634 0.06773441 -0.20060875 0.08614951
0.0993496 -0.095901534 0.13591008 0.14383574 0.19261514 -0.23941903 -0.263326 0.13691537
-0.0086515825 0.22204086 -0.034966078 -0.035598453 0.07196125 -0.1986107 -0.10028654 0.12130517
-0.04993977 -0.2165505 -0.24076015 -0.1504131 -0.095585935 -0.085699245 0.21089433 -0.1109988
0.24453634 0.22635521 0.13932678 0.13684006 0.04750266 0.11365918 -0.07833509 -0.16452299
0.20609806 -0.07436287 -0.08955559 -0.11405275 0.032328453 0.20907979 -0.020887027 -0.14047322
0.012568576 -0.18325396 -0.034353428 -0.151627 0.13228647 -0.03143075 0.21684468 -0.030622756
-0.14921042 -0.2230462 -0.18631075 0.1483296 -0.23121285 0.23375537 -0.13719207 -0.06881582
-0.014678837 0.102866925 -0.1767071 -0.032238457 0.09757654 0.09784365 0.15665627 0.19221413
0.097148865 0.09616782 -0.17091769 0.08396152 -0.12378797 -0.20129144 -0.084698364 -0.065611914
0.12674214 -0.2259287 -0.20863365 0.23583363 -0.091530085 -0.032999206 0.18983999 -0.16982934
0.023384009 0.0841537 0.0072118742 0.13916287 -0.063889265 0.1934157 0.09171694 -0.062248547
-0.22244261 -0.16361055 0.0033197568 0.20693757 0.3069537 -0.010915411 -0.22719046 -0.20054871
00000000: b880 0b3d d880 1cbc 78ba 0abd 105d 48be
00000010: 8ecd 523e cff8 61be f9d7 3a3e 12b8 bdbd
00000020: ab01 75be 3d0e 38be 52d3 f6bd 220d 0ebe
00000030: e920 ee3d e788 5c3d e6f6 fbbc 817d 30be
00000040: 72ed 1cbc dd9f 423e 2268 52be fb9b d7bd
00000050: 08a3 c03b 4c33 7c3e c34b 3f3d 4de2 55be
00000060: 99e5 2c3d 9db7 573e ec72 343d 7c75 1c3e
00000070: 5749 43bd 5db7 a4be 1341 6abe e295 dabd
00000080: 0ea9 35be 75c3 90ba d633 aabe 6bd3 9bbc
00000090: 613c 38bd 2cfc 5d3e 6a35 31bc 7a33 203e
000000a0: de84 533e 5b91 253e c597 ebbd dbb3 fdbd
000000b0: db40 363e f94c 2f3d a78c 7bbe 8c6c 423e
000000c0: ecb0 f73d a2ef 583e 5902 24be f344 99bc
000000d0: 5e20 14be 45f5 203e 44c9 a43c 9fb5 5cbe
000000e0: 2838 c0bc 0945 f43c a968 c4bc dc8d 4fbe
000000f0: 6917 72bd 8666 f0bd 623d c1bd 259c cf3d
00000100: eadf 373e 74cd 403e c1d3 83be a697 88bd
00000110: bf52 1b3e 8da4 5dbc 7053 d03b 94ff 8c3d
00000120: 4445 20be 299d 75be 5b10 1cbd f3ad b13c
00000130: 8973 f63d 37c9 8ebd 8e14 04be 8617 153e
00000140: e057 55be 112b 77be 7786 933d eeab c9bd
00000150: 4e65 b53d 960c c7bd 4b64 a33c 9b63 c6bd
00000160: 1619 583e 394b 52be 1225 463e fd67 6a3e
00000170: 75cd f33d 84e3 31bd 6809 0f3e e937 4fbd
00000180: 5972 87bd 83a0 f0bd 4969 b2bd f3c0 b0bd
00000190: 31e3 6c3c eab8 c23d 5e32 28be ada9 b93a
000001a0: 3f13 11bd a7ed 083d 2fa7 6bbc 4a16 62bd
000001b0: eac0 9dbd fd53 8c3e bd88 2dbd da6f 61be
000001c0: fafa b8ba d729 eb3d 9fbe 443e 1635 d4bd
000001d0: 2600 fabd 0a21 183c cf61 84be 367f d63d
000001e0: ec0e 123e ce42 37be acbf 333d 2073 023e
000001f0: 30bb e03d 509a 16be 9834 37be d6e7 d5bd
00000200: 45c4 293e e218 803d 2cd2 fbbd e87b 3bbd
00000210: 9fbc 70bd ba55 cb3d c275 6bbe a92b 153e
00000220: 1ba5 16be 6645 99bd b12c 37be 4e0d 2ebe
00000230: 45f2 96bd 7080 4ebe 7c5b b23c 03f5 e5bc
00000240: 7093 06be e37f dbbd 58cd 263d ceef 06be
00000250: feec 48be a2ae 37bd 50ea 68be 6079 e7bc
00000260: 1dcc 78be e361 2dbe 6184 8dbd 5cb9 22bd
00000270: 5731 323e 57b8 8a3d 616c 4dbe 286f b03d
00000280: ce77 cb3d 0668 c4bd 032c 0b3e ad49 133e
00000290: e73c 453e 432a 75be aad2 86be 8b33 0c3e
000002a0: 5ebf 0dbc ae5e 633e 9738 0fbd afcf 11bd
000002b0: 6b60 933d 9a60 4bbe 0863 cdbd d86e f83d
000002c0: a58d 4cbd 6abf 5dbe d489 76be e405 1abe
000002d0: 8fc2 c3bd 1683 afbd aff4 573e 5753 e3bd
000002e0: bc67 7a3e a9c9 673e aeab 0e3e cd1f 0c3e
000002f0: 2692 423d 25c6 e83d 266e a0bd b778 28be
00000300: 5f0b 533e 8f4b 98bd ec68 b7bd 7d94 e9bd
00000310: d76a 043d 0319 563e 451b abbc 36d8 0fbe
00000320: 6eec 4d3c eda6 3bbe 2eb6 0cbd 1c44 1bbe
00000330: 1b76 073e 88bd 00bd 880c 5e3e 93dc fabc
00000340: 9eca 18be 3966 64be 3fc8 3ebe b7e3 173e
00000350: 10c3 6cbe 915d 6f3e 147c 0cbe 4fef 8cbd
00000360: 817f 70bc e5ab d23d b5f2 34be 790c 04bd
00000370: 36d6 c73d 4062 c83d 806a 203e c8d3 443e
00000380: fcf5 c63d a2f3 c43d 0c05 2fbe 04f4 ab3d
00000390: 8c84 fdbd 581f 4ebe 5676 adbd 8a5f 86bd
000003a0: b1c8 013e da59 67be 0fa4 55be 5f7e 713e
000003b0: 2074 bbbd 2d2a 07bd 6a65 423e bee7 2dbe
000003c0: d28f bf3c c658 ac3d 9651 ec3b b680 0e3e
000003d0: 60d8 82bd c40e 463e 17d6 bb3d 55f8 7ebd
000003e0: ffc7 63be 8689 27be 4790 593b 71e7 533e
000003f0: 0929 9d3e 8dd6 32bc 9ea4 68be a45c 4dbe

bias f4 [32]
-0.08950078 0.016741008 0.046215292 -0.22982964 -0.04451645 0.10368185 0.13579684 -0.14568035
-0.2289362 -0.22656931 -0.21541323 -0.023084136 0.1405958 0.009614968 0.13154505 0.001777472
0.07030917 -0.17551011 -0.06899698 0.2058777 0.11203609 -0.2430149 0.21615489 0.14250764
0.17209888 -0.16515501 0.2280206 -0.013366106 0.062466297 0.21435824 -0.08030878 0.22450364
00000000: 2f4c b7bd 7024 893c 3f4c 3d3d 7658 6bbe
00000010: e256 36bd 2657 d43d 540e 0b3e 3b2d 15be
00000020: 406e 6abe c901 68be 4995 5cbe f11a bdbc
00000030: 58f8 0f3e 1988 1d3c bfb3 063e 10fa e83a
00000040: 41fe 8f3d ecb8 33be 4a4e 8dbd 9bd1 523e
00000050: 2d73 e53d e6d8 78be b557 5d3e 86ed 113e
00000060: b03a 303e 651e 29be 3b7e 693e 83fd 5abc
00000070: a9dc 7f3d ba80 5b3e ee78 a4bd 48e4 653e
