model.pkl (torch_old, 386707 bytes, 42 tensors)

weight f4 [16, 4]
0.50985193 -0.3668054 0.46325168 -0.47496697 -2.2111218 0.11444721 0.32100445 -0.5146227
-0.26575798 -0.4385559 0.15221094 0.14683658 -1.2123027 0.2589168 0.2998418 -0.4986544
-0.9907917 0.05163598 -0.2745677 -0.4203626 0.93238264 -0.31853506 -0.43014923 -0.4941107
0.028920375 -0.08866591 0.23439194 -0.0009601758 3.2277584 -0.021869125 0.15873326 0.9177744
-0.15930024 -0.046546 0.046028662 -0.20228438 4.268691 0.05364127 0.2769777 1.2509924
-0.8733815 0.090935506 0.16262707 -0.068398945 1.5941049 0.0076577244 0.31518018 -0.17089593
3.747771 -0.002680144 0.34161377 0.7207662 0.40292758 -0.35043052 0.026395105 0.034564152
3.9202225 0.030402593 0.05132074 1.1013507 3.0562694 0.0010617703 -0.028431159 0.3896956
00000000: a885 023f ebcd bbbe 532f ed3e df2e f3be
00000010: 0583 0dc0 4d63 ea3d b25a a43e 50be 03bf
00000020: 6e11 88be 668a e0be 2fdd 1b3e 545c 163e
00000030: bc2c 9bbf be90 843e dd84 993e a14f ffbe
00000040: 86a4 7dbf 4080 533d 2394 8cbe c439 d7be
00000050: a1b0 6e3f 0717 a3be 853c dcbe 14fc fcbe
00000060: 6cea ec3c 7996 b5bd 7104 703e 4fb4 7bba
00000070: 9893 4e40 e126 b3bc f98a 223e 43f3 6a3f
00000080: 9a1f 23be 05a7 3ebd 8d88 3c3d a323 4fbe
00000090: 1e99 8840 f3b6 5b3d 05d0 8d3e 8520 a03f
000000a0: ee95 5fbf 653c ba3d b687 263e bf14 8cbd
000000b0: a10b cc3f a6ed fa3b 4c5f a13e 58ff 2ebe
000000c0: 7bdb 6f40 5ba5 2fbb 00e8 ae3e 2284 383f
000000d0: 864c ce3e a16b b3be 8c3a d83c 2493 0d3d
000000e0: ede4 7a40 dc0e f93c b235 523d 0ff9 8c3f
000000f0: eb99 4340 192b 8b3a 76e8 e8bc 2f86 c73e

bias f4 [16]
0.1663204 -0.5174256 -0.3329169 -0.33748147 -0.36441672 0.15183116 -0.18254018 0.19354711
-0.24886884 0.034574147 0.41436356 0.51328665 -0.2521142 0.45482317 -0.08579652 0.20298661
00000000: e54f 2a3e 0176 04bf 1574 aabe 5fca acbe
00000010: d494 babe a179 1b3e d0eb 3abe 3731 463e
00000020: 79d7 7ebe 9f9d 0d3d 7627 d43e c166 033f
00000030: 1d15 81be 95de e83e 16b6 afbd b9db 4f3e

weight f4 [16, 16]
0.20466258 0.45530006 0.0054620155 0.5468881 -0.09139054 0.2241641 0.0115898065 -0.16223204
0.15155645 -0.33559486 0.03149176 -0.27897012 -0.4639948 -0.025977448 -0.3390223 -0.31035307
0.24354692 -0.22540663 -0.058983553 -0.027875448 -0.26035383 -0.0077127987 0.1993943 0.13959293
0.06062079 -0.09908904 -0.2870953 -0.12267826 0.24719122 0.080354325 0.15685767 0.26008293
-0.025571395 -0.15999189 0.079508185 -0.32208866 0.12690283 0.06788359 0.041180044 0.012782851
0.14814909 0.20834294 -0.058021456 0.211166 0.17149083 -0.014027288 -0.17421451 -0.037456427
-0.08012026 -0.12502979 -0.07956574 -0.12404823 -0.24809289 0.12587826 0.23056048 0.080115624
0.14326835 -0.2188862 -0.13200249 0.12448706 0.20021176 -0.14418206 0.09630274 -0.22044381
0.15455177 0.2191494 -0.12531182 0.24128865 0.02401305 -0.052057687 -0.05114164 -0.10850055
0.17164998 -0.06022717 -0.12887219 -0.20901105 -0.33143994 -0.214813 -0.18641445 0.14124583
0.18311356 -0.13860364 -0.009118052 -0.27704102 -0.0596522 -0.11783481 -0.008579531 0.09607927
0.077643864 0.1827904 0.19424237 0.009338828 0.13771215 -0.22081396 -0.20411672 0.07870977
-0.14791276 -0.04047468 -0.20071967 -0.094311856 0.013034919 -0.12082819 -0.15997434 -0.24175541
-0.09178613 -0.027812095 -0.19887866 -0.094889954 0.11237271 -0.13198139 0.15899125 -0.1133984
0.12645926 -0.06419766 -0.19034916 -0.16576429 -0.18946809 0.23796028 0.13206416 0.016407905
-0.21409412 -0.11551704 0.09784147 -0.20533922 0.023760201 0.23731576 0.0010066283 -0.014685852
-0.14418603 -0.018399216 -0.23312865 0.022931868 -0.15465443 -0.08899257 -0.047037292 -0.17801867
0.07480298 -0.181545 -0.068636216 -0.06674791 0.15250336 0.17299797 -0.02426676 0.13480236
0.23691796 0.31265992 -0.14358349 0.43880063 0.17008063 0.045241185 0.18576238 -0.34226394
0.050133668 -0.4776379 0.097869396 -0.1987742 0.014808028 0.0336952 -0.40380612 -0.23305407
-0.1044573 -0.15774107 -0.14693387 -0.18772422 -0.06525205 0.24101081 -0.118171416 0.27973446
-0.08284859 -0.19674458 0.09952933 0.039124917 0.21297272 0.07361903 -0.058203455 -0.18414801
0.13264628 -0.24474767 0.067904525 -0.15934506 -0.15948957 0.35983545 -0.20311376 0.23224993
0.2130231 0.16550909 -0.12401775 0.31346554 0.1435714 -0.0829423 0.37554333 0.2159764
0.024893597 -0.12499327 -0.22350334 -0.07714709 0.17982338 -0.03531473 -0.09604638 0.06094654
-0.050404876 0.01827748 0.17855904 0.059324738 -0.26531118 -0.089002766 -0.07253233 -0.21960427
-0.0048915157 0.679748 -0.05489248 0.5879775 0.23042436 -0.020710398 -0.0989268 -0.49276218
0.11270479 -0.5359023 0.11984352 0.007387434 -0.237019 0.16806881 -0.48141775 -0.5044495
0.03103258 0.05570391 -0.0017762362 -0.066893384 -0.16709477 -0.2485497 -0.18670744 -0.04211623
0.2406423 0.017397283 -0.2773057 0.15602262 0.020814227 0.14675495 0.010987176 -0.119919695
-0.21832299 0.22999191 0.034538873 0.09817421 -0.09772476 0.27589166 -0.09462551 0.22627601
-0.073291674 -0.06826015 -0.24908537 -0.17180587 -0.15802577 0.18740056 0.080984786 0.16247138
00000000: 1193 513e 171d e93e b5fa b23b dc00 0c3f
00000010: f72a bbbd 468b 653e 2ce3 3d3c 2820 26be
00000020: 9d31 1b3e 17d3 abbe 81fd 003d 2cd5 8ebe
00000030: ba90 edbe a8ce d4bc 5594 adbe 99e6 9ebe
00000040: 5d64 793e ffd0 66be bd98 71bd 0d5b e4bc
00000050: 194d 85be a5bb fcbb 052e 4c3e 73f1 0e3e
00000060: 814d 783d 32ef cabd 28fe 92be bd3e fbbd
00000070: b21f 7d3e cf90 a43d 4c9f 203e 9729 853e
00000080: 1a7b d1bc ead4 23be 30d5 a23d cee8 a4be
00000090: d1f2 013e 8d06 8b3d 68ac 283d 2a6f 513c
000000a0: 65b4 173e da57 553e e8a7 6dbd e63b 583e
000000b0: 4b9b 2f3e b6d2 65bc 4a65 32be e96b 19bd
000000c0: 1716 a4bd cf07 00be 5df3 a2bd 000d febd
000000d0: 100c 7ebe 3be6 003e 0c18 6c3e a913 a43d
000000e0: f0b4 123e b423 60be a92b 07be 12f3 fe3d
000000f0: 5004 4d3e 76a4 13be 5f3a c53d 06bc 61be
00000100: d242 1e3e b368 603e be51 00be 5f14 773e
00000110: 04b7 c43c 713a 55bd e579 51bd 8935 debd
00000120: 03c5 2f3e c4b0 76bd 12f7 03be fe06 56be
00000130: 7fb2 a9be f0f7 5bbe 6ee3 3ebe bfa2 103e
00000140: 1f82 3b3e 1dee 0dbe e263 15bc 52d8 8dbe
00000150: de55 74bd 6053 f1bd 2991 0cbc 35c5 c43d
00000160: bf03 9f3d 682d 3b3e 79e7 463e e201 193c
00000170: 6a04 0d3e 0e1d 62be f903 51be 9732 a13d
00000180: 7176 17be c7c8 25bd 7589 4dbe 9326 c1bd
00000190: 6a90 553c c574 f7bd 50d0 23be bb8e 77be
000001a0: 5efa bbbd 31d6 e3bc d9a6 4bbe aa55 c2bd
000001b0: aa23 e63d 2126 07be 9ace 223e 6c3d e8bd
000001c0: 897e 013e 107a 83bd e4ea 42be 1dbe 29be
000001d0: ec03 42be dcab 733e d43b 073e df69 863c
000001e0: 7d3b 5bbe 3394 ecbd 1c61 c83d 7244 52be
000001f0: c1a4 c23c e702 733e d7f0 833a ee9c 70bc
00000200: 81a5 13be f4b9 96bc 47b9 6ebe 9ddb bb3c
00000210: bb5d 1ebe bd41 b6bd 2daa 40bd 874a 36be
00000220: 4e32 993d efe6 39be 2591 8cbd 21b3 88bd
00000230: d729 1c3e 6126 313e 16cb c6bc a109 0a3e
00000240: 9f9a 723e f614 a03e 8d07 13be 7aaa e03e
00000250: 9e29 2e3e d24e 393d 7e38 3e3e 383d afbe
00000260: f658 4d3d f48c f4be c06f c83d 778b 4bbe
00000270: 5f9d 723c fa03 0a3d adbf cebe baa5 6ebe
00000280: b5ed d5bd e086 21be d575 16be c73a 40be
00000290: dea2 85bd 8acb 763e db03 f2bd 5b39 8f3e
000002a0: 86ac a9bd 6977 49be 09d6 cb3d 7341 203d
000002b0: 8515 5a3e 93c5 963d bf66 6ebd 4c91 3cbe
000002c0: 6dd4 073e 229f 7abe 8711 8b3d 5a2b 23be
000002d0: 3c51 23be 5a3c b83e 0efd 4fbe edd2 6d3e
000002e0: ba22 5a3e 377b 293e 05fd fdbd 8e7e a03e
000002f0: 6204 133e a7dd a9bd 3747 c03e eb28 5d3e
00000300: a8ed cb3c 79fc ffbd 0fde 64be 4bff 9dbd
00000310: 9f23 383e 2ea6 10bd f7b3 c4bd 14a3 793d
00000320: 5875 4ebd a7ba 953c 2ed8 363e 7ffe 723d
00000330: ded6 87be 1547 b6bd d58b 94bd f1df 60be
00000340: 0249 a0bb f703 2e3f f0d6 60bd b285 163f
00000350: 5df4 6b3e daa8 a9bc 229a cabd 534b fcbe
00000360: c5d1 e63d e530 09bf 8570 f53d 4a12 f23b
00000370: 1cb5 72be 3b1a 2c3e 637c f6be 9a23 01bf
00000380: 0a38 fe3c c829 643d 99d0 e8ba 66ff 88bd
00000390: e41a 2bbe d083 7ebe 3c30 3fbe 1182 2cbd
000003a0: ef6a 763e bf84 8e3c 03fb 8dbe 65c4 1f3e
000003b0: 9982 aa3c ee46 163e 8e03 343c 7598 f5bd
000003c0: 1090 5fbe 0083 6b3e a278 0d3d 8f0f c93d
000003d0: eb23 c8bd ac41 8d3e 05cb c1bd e6b4 673e
000003e0: f219 96bd facb 8bbd 3c10 7fbe e1ed 2fbe
000003f0: 82d1 21be efe5 3f3e 5adb a53d e65e 263e

bias f4 [16]
0.0912073 -0.26961353 0.18136162 0.10035371 -0.0113239335 0.25907236 -0.15471491 0.011903773
-0.16425714 0.03133315 0.020572415 0.10972624 0.035889223 -0.28358337 -0.22647594 0.033068288
00000000: e5ca ba3d c90a 8abe dcb6 393e 3f86 cd3d
00000010: 0588 39bc 22a5 843e 966d 1ebe 0b08 433c
00000020: 0633 28be 3057 003d 7b87 a83c 27b8 e03d
00000030: 9400 133d d731 91be 4fe9 67be 9d72 073d

weight f4 [16, 16]
-0.23297781 -0.094025865 0.119787276 0.17438397 0.19378561 0.025994072 -0.09169813 0.15113762
-0.16702847 0.079576805 0.017491512 0.110019535 -0.1648575 -0.1742029 -0.041735467 0.16488966
0.059379406 0.0927333 -0.12656733 0.10669335 -0.12425183 -0.18893512 0.24807198 -0.02789846
0.19425029 0.0004335995 -0.12552243 -0.097878166 -0.12052287 -0.3715737 -0.13533546 -0.24391496
-0.15398285 -0.21300957 0.10889083 -0.24477255 -0.0776312 -0.23777036 -0.15234615 -0.07530011
0.009324482 0.10156153 -0.012708444 -0.15915827 0.16173138 -0.084838204 0.09908805 -0.22722083
-0.52088827 0.018348746 0.1670852 -0.09051396 -0.1907805 0.11553245 -0.032275558 -0.041982654
0.15804277 -0.26705357 0.23622808 0.011267937 0.1658003 -0.30961972 -0.21218984 0.0155103905
-0.29030886 -0.21072194 -0.20289375 0.03434088 -0.10771202 0.08491472 0.015126571 -0.20691332
-0.24385993 -0.29312015 0.12943986 -0.14384767 0.08818728 -0.25864604 -0.09856314 -0.20991473
-0.25594285 0.17918523 -0.13757876 -0.113877624 0.16592012 -0.19971408 -0.16370633 -0.087881885
-0.051923867 0.18800035 0.22184753 0.06894125 -0.20093273 -0.24518229 -0.014606344 0.15721671
-0.01755746 0.024375057 -0.23611401 -0.013573092 0.12959568 -0.120044604 0.037538268 -0.19465598
0.019912353 -0.21084167 -0.18218178 -0.0031723313 -0.041498814 0.059432205 -0.03962463 -0.11487301
-0.09654938 -0.22550331 -0.121955544 0.035217643 -0.104400456 -0.14567216 0.012612759 -0.0007926266
0.22076467 -0.10615578 0.13344069 -0.28345183 0.018078921 -0.13228463 -0.27629066 -0.13375205
0.07066196 -0.23897447 0.093414344 -0.093571246 0.03359479 0.24722564 0.0619149 0.1810442
-0.16561729 -0.097799726 0.13135152 0.13105835 -0.18374841 -0.20512395 0.080200456 -0.031849273
-0.37181038 -0.19579111 0.026622133 -0.07220248 -0.17510623 0.010767266 -0.0057449606 0.17619868
0.14288744 -0.29851827 0.061595324 -0.2390926 -0.04186176 -0.2701471 0.15373556 -0.014911626
-0.29214385 0.14621547 -0.095704466 0.039409153 -0.15464386 -0.12273799 -0.1396592 -0.06703627
0.19723375 -0.4031445 -0.008752 -0.11332362 -0.23034413 -0.40187445 -0.028490433 0.06242739
-0.3663402 -0.30410698 -0.022516102 0.2058477 0.0031906983 -0.23450094 -0.15295772 0.14679877
0.08741225 0.075261064 0.10529879 -0.068402976 0.03158391 -0.13313988 -0.013754522 -0.07753555
0.0025428405 0.03941743 -0.11605894 0.20017593 0.075703226 0.073961645 0.09070838 -0.19999483
-0.14578596 -0.3578819 0.014109923 -0.20488916 -0.08504129 -0.22657605 0.11488486 0.17563264
0.14845985 -0.17023565 0.08492183 -0.16781807 -0.10555082 -0.16927029 0.0959818 -0.21378818
0.111059576 0.16682944 -0.20357603 0.03673141 -0.15236545 -0.044691615 -0.09702684 -0.004794094
-0.12614883 -0.20851848 -0.13877013 -0.268011 -0.14292502 0.02786722 0.07100277 0.22452888
-0.15560824 -0.103204064 -0.28733584 -0.40129894 -0.09874801 -0.5585044 0.18987201 -0.084961854
-0.14484999 0.07829037 -0.015818207 -0.16849072 -0.009560997 0.060769867 -0.081552185 0.094627514
0.14733547 0.047925495 -0.028239224 -0.03893132 0.11947496 -0.26923218 0.19016257 -0.1274231
00000000: bc91 6ebe a290 c0bd 0853 f53d b691 323e
00000010: bc6f 463e 85f1 d43c 3bcc bbbd d2c3 1a3e
00000020: 8309 2bbe 2af9 a23d 5c4a 8f3c ec51 e13d
00000030: 68d0 28be 3f62 32be cff2 2abd d6d8 283e
00000040: d237 733d f5ea bd3d de9a 01be 0b82 da3d
00000050: be77 febd 3578 41be 9506 7e3e 508b e4bc
00000060: 8ce9 463e bd54 e339 f488 00be 5974 c8bd
00000070: b2d4 f6bd e83e bebe 6195 0abe d8c4 79be
00000080: aead 1dbe 2e1f 5abe 2802 df3d a8a5 7abe
00000090: 1bfd 9ebd 137a 73be a100 1cbe f236 9abd
000000a0: b6c5 183c 7eff cf3d 1437 50bc 63fa 22be
000000b0: e99c 253e a7bf adbd adee ca3d 94ac 68be
000000c0: ef58 05bf 1c50 963c 6218 2b3e 625f b9bd
000000d0: f75b 43be 479c ec3d 6033 04bd 01f6 2bbd
000000e0: f7d5 213e 3fbb 88be c6e5 713e 279d 383c
000000f0: 8ec7 293e 7a86 9ebe 4b48 59be 4b1f 7e3c
00000100: 5da3 94be 7ec7 57be 61c3 4fbe 06a9 0c3d
00000110: 1f98 dcbd c5e7 ad3d 70d5 773c 16e1 53be
00000120: 6bb6 79be d813 96be e28b 043e ce4c 13be
00000130: 889b b43d 416d 84be 79db c9bd e3f3 56be
00000140: f10a 83be 557c 373e 72e1 0cbe ac38 e9bd
00000150: f7e6 293e d981 4cbe a2a2 27be 6bfb b3bd
00000160: 1fae 54bd 2a83 403e 002c 633e 1231 8d3d
00000170: 4fc1 4dbe 1111 7bbe 724f 6fbc 6bfd 203e
00000180: aad4 8fbc 33ae c73c dfc7 71be ad61 5ebc
00000190: bbb4 043e f2d9 f5bd bac1 193d e653 47be
000001a0: 3b1f a33c e1e6 57be dc8d 3abe e3e6 4fbb
000001b0: a9fa 29bd 2f6f 733d 704d 22bd 8a42 ebbd
000001c0: aebb c5bd 57ea 66be d4c3 f9bd 6040 103d
000001d0: e8cf d5bd 152b 15be bfa5 4e3c 45c8 4fba
000001e0: 2210 623e 3468 d9bd ada4 083e 9920 91be
000001f0: 3f1a 943c 9f75 07be f875 8dbe 4cf6 08be
00000200: 38b7 903d b9b5 74be 0550 bf3d 48a2 bfbd
00000210: b19a 093d b828 7d3e 7a9a 7d3d a763 393e
00000220: 9497 29be 394b c8bd 0381 063e 2934 063e
00000230: 8b28 3cbe 030c 52be 2340 a43d 6274 02bd
00000240: ee5d bebe 777d 48be a916 da3c e5de 93bd
00000250: 0c4f 33be 3069 303c 3940 bcbb 6d6d 343e
00000260: 1651 123e 63d7 98be 614b 7c3d b1d4 74be
00000270: 3d77 2bbd b850 8abe db6c 1d3e e54f 74bc
00000280: e193 95be 82b9 153e b400 c4bd 7e6b 213d
00000290: f65a 1ebe 0e5e fbbd d202 0fbe 504a 89bd
000002a0: a5f7 493e f568 cebe 8c64 0fbc 3716 e8bd
000002b0: 55df 6bbe 7dc2 cdbe c564 e9bc ddb3 7f3d
000002c0: f190 bbbe e9b3 9bbe b073 b8bc bdc9 523e
000002d0: 091b 513b 0421 70be f3a0 1cbe 6b52 163e
000002e0: 3205 b33d 7922 9a3d e4a6 d73d dc16 8cbd
000002f0: 215e 013d d255 08be a65a 61bc f5ca 9ebd
00000300: c9a5 263b 2c74 213d 4fb0 edbd ebfa 4c3e
00000310: 4b0a 9b3d 3479 973d 51c5 b93d 72cb 4cbe
00000320: ea48 15be 4c3c b7be 4e2d 673c 77ce 51be
00000330: 212a aebd 8d03 68be c148 eb3d 0bd9 333e
00000340: dc05 183e 4152 2ebe 7feb ad3d 80d8 2bbe
00000350: 072b d8bd 3155 2dbe 1b92 c43d 4aeb 5abe
00000360: 3473 e33d 56d5 2a3e 3c76 50be ad73 163d
00000370: b005 1cbe 8e0e 37bd 02b6 c6bd c617 9dbb
00000380: 292d 01be de85 55be c219 0ebe bd38 89be
00000390: f05a 12be cc49 e43c e669 913d e6ea 653e
000003a0: c457 1fbe a75c d3bd af1d 93be 0e77 cdbe
000003b0: 663c cabd 25fa 0ebf cf6d 423e 7b00 aebd
000003c0: 8e53 14be b456 a03d 2f95 81bc d588 2cbe
000003d0: baa5 1cbc d3e9 783d d504 a7bd 12cc c13d
000003e0: 1cdf 163e 864d 443d f255 e7bc 7376 1fbd
000003f0: 4aaf f43d cdd8 89be fab9 423e 337b 02be

bias f4 [16]
-0.2784318 0.20455809 0.005720055 -0.029578475 0.19727805 0.08776399 0.21302445 0.39456585
-0.14386709 0.190577 -0.118994445 0.17827848 0.18506101 0.25481904 0.21479551 0.35426012
00000000: 9d8e 8ebe ad77 513e 4d6f bb3b 8f4e f2bc
00000010: 4203 4a3e 9bbd b33d 1523 5a3e 8904 ca3e
00000020: e551 13be 9e26 433e 5cb3 f3bd a28e 363e
00000030: a280 3d3e a477 823e 5bf3 5b3e 9561 b53e

weight f4 [16, 16]
-0.015602204 0.36721858 0.1060952 0.26547438 -0.12864375 -0.21956903 -0.110221066 0.016607367
-0.067827694 -0.24256456 0.23470248 0.20477635 -0.29980043 0.042491615 0.113907054 -0.13834941
0.10930339 -0.22459492 0.06367012 -0.05615052 0.047447186 -0.13517101 0.10417616 0.30811563
0.10638909 0.27670774 0.08953875 0.13472928 0.25805435 0.23891254 0.02468986 0.28220186
0.19084893 0.05391063 -0.15029834 -0.4448531 -0.02087611 0.024836646 -0.19882277 0.112421095
-0.060263053 0.05400562 0.02213538 0.08345523 0.06333678 -0.2002859 -0.08853523 0.17172691
0.13277191 0.27567363 0.02912997 -0.10715475 0.18808259 0.11516736 0.17024882 -0.31923845
-0.15989137 -0.18450907 0.1897788 0.028193196 0.014561827 -0.072224736 -0.036156617 -0.05136807
-0.17093167 0.12175286 0.0421336 0.07076241 0.2800009 0.21285544 0.07447986 0.18183897
0.08910411 -0.15588947 0.18020846 0.07678101 -0.084153675 0.14110431 0.06543485 -0.05231529
-0.09913095 -0.14669302 -0.07993296 -0.11945196 -0.04523793 0.1413319 0.22817142 -0.21471132
-0.23602635 -0.047488797 -0.07098661 0.24060045 -0.19508785 0.19681646 0.01376946 -0.15792313
-0.1344981 0.12249976 -0.14440556 0.76575744 0.3124607 0.103448756 -0.09817425 -0.026191764
0.08188489 -0.130414 0.26282105 -0.058348995 -0.30996174 -0.21101655 -0.15469658 -0.3882711
-0.10759703 -0.050217908 -0.12053372 -0.18467127 -0.13054608 -0.121895455 -0.21184327 -0.23346113
0.013184222 0.19685781 0.13605043 -0.017550718 0.20276994 0.22687201 -0.19961283 -0.17801362
-0.08961415 -0.13943122 0.07706873 0.41199717 0.2770577 -0.16927716 0.09593329 0.031853247
0.094081685 0.15125203 -0.050336823 -0.05541151 -0.14131114 -0.12592825 0.00037680613 -0.23339872
-0.06001225 0.18770006 0.023568146 -0.036461215 -0.19689408 0.06233309 -0.1466074 -0.18053156
0.15712185 0.22141254 -0.12946333 0.23392381 0.3092773 -0.23812121 -0.052834984 0.25951388
-0.083502606 0.094960414 0.19164151 -0.23838454 -0.07085108 0.19046599 -0.03356429 0.22005501
0.18029137 0.19958937 0.049166743 0.13479312 -0.24873617 0.1824075 0.011150428 -0.18703519
-0.0997271 -0.07387351 0.18718594 -0.2237008 -0.11297198 -0.017010543 -0.23454496 0.1433398
0.15111323 -0.20471323 0.049489465 -0.17682776 0.020489644 0.038999658 0.03931355 -0.08581686
-0.2501767 0.15234283 0.14271837 -0.18212523 -0.1986711 -0.17161252 -0.19679862 0.07428541
0.09893392 0.042127214 0.055221975 0.008585341 -0.1358186 0.1834716 0.05405422 0.133654
0.120866604 -0.2399367 -0.12207452 -0.17399676 -0.0002869886 -0.23690362 -0.05818546 0.05752886
-0.057206757 -0.18617538 -0.24619223 -0.23481281 -0.24867818 0.13801758 0.19138801 0.15479267
-0.065471016 0.13147947 -0.055832274 0.15418927 0.1328383 -0.11681467 0.027146015 -0.14568217
-0.11145793 0.07288052 0.12266041 0.075957626 -0.19748865 -0.05441142 -0.07214796 0.18774271
-0.14686972 -0.083431296 -0.07942161 -0.007910056 -0.05704565 0.009829713 0.054556996 -0.23189783
0.11267208 -0.13786308 -0.10427061 0.1804031 0.21800415 -0.011638679 -0.15075539 -0.14643127
00000000: 63a0 7fbc 1304 bc3e 7148 d93d 42ec 873e
00000010: 30bb 03be b4d6 60be 95bb e1bd 2c0c 883c
00000020: 3fe9 8abd d862 78be d955 703e e4b0 513e
00000030: 717f 99be b00b 2e3d 1a48 e93d 78ab 0dbe
00000040: 75da df3d 36fc 65be 7b65 823d 16fe 65bd
00000050: fb57 423d 456a 0abe 505a d53d 55c1 9d3e
00000060: 86e2 d93d a3ac 8d3e 1860 b73d 79f6 093e
00000070: b31f 843e 7da5 743e 6442 ca3c c37c 903e
00000080: e76d 433e 65d1 5c3d cfe7 19be c9c3 e3be
00000090: 6004 abbc 3976 cb3c 3298 4bbe 083d e63d
000000a0: 64d6 76bd ff34 5d3d 4255 b53c 93ea aa3d
000000b0: b7b6 813d bf17 4dbe f551 b5bd 2ed9 2f3e
000000c0: 5cf5 073e 1825 8d3e faa1 ee3c f373 dbbd
000000d0: b998 403e dddc eb3d b555 2e3e 3973 a3be
000000e0: 90ba 23be f2ef 3cbe 6055 423e 6bf5 e63c
000000f0: bb94 6e3c 90ea 93bd f618 14bd 5367 52bd
00000100: b608 2fbe 9059 f93d 4894 2c3d e2eb 903d
00000110: 475c 8f3e c7f6 593e e688 983d ff33 3a3e
00000120: 377c b63d 7da1 1fbe 9188 383e 5d3f 9d3d
00000130: c358 acbd a67d 103e b502 863d 8f48 56bd
00000140: 2b05 cbbd b236 16be e4b3 a3bd 3ba3 f4bd
00000150: 684b 39bd 4fb9 103e c5a5 693e 49dd 5bbe
00000160: e4b0 71be 9d83 42bd 6e61 91bd f75f 763e
00000170: 1cc5 47be 418a 493e 4d99 613c 9ab6 21be
00000180: dfb9 09be 27e1 fa3d 0ddf 13be ae08 443f
00000190: d9fa 9f3e f1dc d33d 950f c9bd 1c90 d6bc
000001a0: 44b3 a73d 3f8b 05be 7b90 863e 5bff 6ebd
000001b0: 4eb3 9ebe b914 58be c868 1ebe 78cb c6be
000001c0: d55b dcbd 4bb1 4dbd 62da f6bd 771a 3dbe
000001d0: dfad 05be 53a4 f9bd 71ed 58be 6f10 6fbe
000001e0: a302 583c 1895 493e ce50 0b3e 86c6 8fbc
000001f0: eca2 4f3e 2351 683e 4e67 4cbe 3449 36be
00000200: a087 b7bd 0fc7 0ebe 36d6 9d3d 4bf1 d23e
00000210: 82da 8d3e fe56 2dbe ac78 c43d 8d78 023d
00000220: e6ad c03d d0e1 1a3e fc2d 4ebd 2ef7 62bd
00000230: deb3 10be 56f3 00be 108e c539 1300 6fbe
00000240: 68cf 75bd 7234 403e fc11 c13c 5b58 15bd
00000250: 9a9e 49be fb50 7f3d 4020 16be 44dd 38be
00000260: 8de4 203e f8b9 623e 0992 04be b989 6f3e
00000270: 9859 9e3e 0cd6 73be 7f69 58bd 01df 843e
00000280: 6a03 abbd 9b7a c23d ac3d 443e 141b 74be
00000290: 5f1a 91bd 8409 433e b57a 09bd 1a56 613e
000002a0: 4d9e 383e 2861 4c3e 1163 493d 3507 0a3e
000002b0: b2b4 7ebe 08c9 3a3e 49b0 363c 2786 3fbe
000002c0: b93d ccbd ff4a 97bd acad 3f3e d311 65be
000002d0: da5d e7bd b259 8bbc 8e2c 70be abc7 123e
000002e0: 6dbd 1a3e 58a0 51be 77b5 4a3d 5612 35be
000002f0: e6d9 a73c 1bbe 1f3d 3f07 213d c0c0 afbd
00000300: 2917 80be c2ff 1b3e c424 123e 097f 3abe
00000310: 7070 4bbe 31bb 2fbe 9485 49be f322 983d
00000320: de9d ca3d 968d 2c3d 7030 623d 88a9 0c3c
00000330: 0814 0bbe fbdf 3b3e f567 5d3d 98dc 083e
00000340: e988 f73d f7b1 75be 3502 fabd 352c 32be
00000350: f576 96b9 dd96 72be e053 6ebd 62a3 6b3d
00000360: a251 6abd c2a4 3ebe d119 7cbe c572 70be
00000370: 7ea5 7ebe 7b54 0d3e 38fb 433e f881 1e3e
00000380: ab15 86bd 8ea2 063e 62b0 64bd cbe3 1d3e
00000390: c306 083e 883c efbd 5261 de3c b52d 15be
000003a0: 0e44 e4bd 6242 953d 6235 fb3d ac8f 9b3d
000003b0: 773a 4abe 82de 5ebd 4fc2 93bd a03f 403e
000003c0: 0465 16be 07de aabd cca7 a2bd 2e99 01bc
000003d0: b3a8 69bd ce0c 213c 2877 5f3d a076 6dbe
000003e0: 9fc0 e63d fb2b 0dbe d48b d5bd 97bb 383e
000003f0: 7b3c 5f3e 28b0 3ebc 9f5f 1abe 14f2 15be

bias f4 [16]
0.12878795 -0.05399165 -0.113304146 -0.20522663 0.08931257 -0.23389046 -0.31957823 -0.16275957
-0.30413294 -0.24662483 -0.07794872 -0.18520448 -0.17518556 0.107721984 0.11862702 -0.13930552
00000000: fde0 033e 5926 5dbd 010c e8bd ee26 52be
00000010: 82e9 b63d fb80 6fbe c29f a3be 72aa 26be
00000020: 50b7 9bbe 388b 7cbe 94a3 9fbd 3ea6 3dbe
00000030: d863 33be 589d dc3d b9f2 f23d 1ba6 0ebe

weight f4 [16, 16]
-0.03565226 0.2916033 -0.18967992 -0.043600805 -0.10570004 0.19521765 -0.038500108 0.07907368
-0.10757165 0.013301299 0.23479778 0.01914191 0.24854577 0.23899087 -0.18975109 0.032343194
-0.31985062 0.011632172 -0.011806815 -0.3168487 -0.32770517 0.13738504 -0.31981468 0.054630112
-0.047349982 -0.18410462 0.013932196 -0.12903385 0.09771786 -0.23456235 -0.20568578 -0.11033272
0.21146096 -0.087629534 0.067194715 -0.048492298 0.14656745 0.21156971 0.111488186 -0.24315694
0.011423062 -0.04988759 0.22579032 -0.21712926 -0.027069276 -0.08079084 0.044782892 -0.20705791
-0.4338682 0.13158159 0.10588044 0.08317189 -0.10214733 0.06893857 -0.7356879 -0.004192455
-0.29309025 0.15726139 -0.25930297 -0.17518677 -0.055794924 -0.04057364 -0.2090662 0.20547056
0.08846518 0.13340811 -0.265354 0.0027876294 -0.28720888 0.13663341 -0.28981832 0.07663617
-0.1764537 0.00896913 0.14743291 -0.075593755 0.010970597 0.18334848 -0.2584386 -0.015990203
-0.026963608 0.023850344 0.032572173 0.061607916 0.014131671 -0.026460676 -0.11710711 0.16309628
0.24221535 -0.02864679 0.13046536 -0.039848953 0.06962699 -0.2344042 -0.17408988 -0.059338167
-0.06939895 -0.22090396 -0.15999316 -0.061062507 0.122297116 -0.1022102 -0.025238385 0.054394163
-0.21032321 0.057396024 0.18950436 0.08776126 0.011157021 -0.19836429 0.22325851 -0.23883101
-0.27206722 0.04140627 -0.18461294 -0.10027463 0.11305641 -0.12532215 -0.15530197 0.2305661
0.15209632 -0.023448275 -0.09081572 -0.19669189 0.110931605 -0.09632279 0.058880385 -0.19704618
0.16614266 0.021098847 0.17133218 -0.109235875 0.011197898 -0.025525741 -0.20439231 -0.105419785
-0.037865978 -0.08982635 0.17585051 0.07822031 -0.105321996 0.20580895 -0.08516731 -0.08343207
0.038690694 -0.36824876 0.036308914 -0.25642136 -0.22721508 0.1358047 -0.45839468 -0.046351325
-0.16511944 -0.24036977 0.1740083 0.20016246 0.2510243 -0.1472763 -0.003100211 0.18900828
-0.20496424 -0.32835233 -0.050016377 0.09431947 -0.15897706 -0.020628367 -0.3798641 -0.14017075
-0.18749873 0.0660694 -0.13090454 0.065920405 0.02677553 0.24635999 -0.14395753 -0.13706195
-0.08780509 0.023821147 0.176795 -0.12736067 -0.019689992 -0.081014805 -0.09009345 0.15571623
-0.17617899 -0.34472233 0.12870023 0.08850798 -0.047955755 -0.10083282 0.10123473 0.038962774
-0.16416852 -0.2774784 0.10569344 0.22270639 0.022560364 0.071498826 -0.23772687 -0.097776204
-0.030102927 -0.055712275 0.18602 0.110809475 -0.12152493 -0.18703946 -0.11562742 0.1593191
-0.060885083 0.11278979 0.22679962 0.012374413 -0.096594565 -0.09176706 -0.20278093 0.03557008
-0.1486709 0.06678409 -0.09708681 0.14810658 -0.251752 -0.19469385 -0.011587678 -0.13152148
-0.17089659 0.006499173 -0.36906767 -0.27390698 -0.24740477 0.14653179 -0.120223254 0.10013206
-0.33634126 -0.13835663 0.17407958 0.18898205 0.04148032 -0.15299124 -0.31238467 -0.24517661
-0.21885143 -0.32641166 0.15232895 -0.14457946 0.17062819 0.030719977 -0.26455963 0.1223578
0.016197326 -0.3390404 -0.25396046 -0.043907013 0.08567443 -0.064979605 0.108466044 -0.2238062
00000000: 1b08 12bd 074d 953e 743b 42be c296 32bd
00000010: 4379 d8bd 23e7 473e 4ab2 1dbd 62f1 a13d
00000020: 864e dcbd b1ed 593c d46e 703e 7fcf 9c3c
00000030: c882 7e3e 06ba 743e 1c4e 42be 4c7a 043d
00000040: 76c3 a3be de94 3e3c 5f71 41bc fe39 a2be
00000050: f9c8 a7be aaae 0c3e c0be a3be d3c3 5f3d
00000060: 0ef2 41bd ec85 3cbe de43 643c 7321 04be
00000070: 4d20 c83d 1d31 70be 4b9f 52be 1ff6 e1bd
00000080: 3989 583e 1d77 b3bd 629d 893d dc9f 46bd
00000090: c715 163e bba5 583e eb53 e43d 22fe 78be
000000a0: cb27 3b3c ee56 4cbd 9435 673e 2257 5ebe
000000b0: 63c0 ddbc ab75 a5bd 446e 373d fd06 54be
000000c0: f923 debe 53bd 063e d8d7 d83d 0656 aa3d
000000d0: 9f32 d1bd aa2f 8d3d 0b56 3cbf dd60 89bb
000000e0: ed0f 96be 2109 213e 5cc3 84be 2964 33be
000000f0: 3889 64bd 8c30 26bd 7315 56be e066 523e
00000100: 3b2d b53d 239c 083e 7bdc 87be a9b0 363b
00000110: 0b0d 93be a1e9 0b3e 1163 94be 6df3 9c3d
00000120: 47b0 34be 42f3 123c a7f8 163e e6d0 9abd
00000130: 05be 333c b4bf 3b3e 1052 84be e3fd 82bc
00000140: c9e2 dcbc cc61 c33c 666a 053d 9558 7c3d
00000150: 8688 673c 0fc4 d8bc dad5 efbd b602 273e
00000160: 4d07 783e acac eabc b698 053e a838 23bd
00000170: 9898 8e3d a807 70be 9e44 32be 940c 73bd
00000180: 0921 8ebd a634 62be 3fd5 23be ae1c 7abd
00000190: e976 fa3d 9553 d1bd bbc0 cebc 6acc 5e3d
000001a0: f85e 57be 1818 6b3d 6e0d 423e 2dbc b33d
000001b0: f0cb 363c 0220 4bbe e19d 643e 1e90 74be
000001c0: 654c 8bbe 9f99 293d 2d0b 3dbe c95c cdbd
000001d0: 1e8a e73d 7354 00be 7b07 1fbe 8519 6c3e
000001e0: 23bf 1b3e 9916 c0bc 98fd b9bd 9969 49be
000001f0: 1c30 e33d e244 c5bd 8f2c 713d 79c6 49be
00000200: 4d21 2a3e 7dd7 ac3c b471 2f3e 0fb7 dfbd
00000210: 6377 373c 5c1b d1bc 384c 51be 54e6 d7bd
00000220: 5b19 1bbd e1f6 b7bd 2812 343e f831 a03d
00000230: 0fb3 d7bd 95bf 523e 336c aebd 6fde aabd
00000240: 227a 1e3d 1a8b bcbe a8b8 143d a949 83be
00000250: 12ab 68be 6310 0b3e b5b2 eabe e3da 3dbd
00000260: 1215 29be 7e23 76be 3b2f 323e 63f7 4c3e
00000270: 4286 803e 99cf 16be e92c 4bbb 638b 413e
00000280: 25e2 51be cc1d a8be f9dd 4cbd 912a c13d
00000290: e2ca 22be d2fc a8bc 8c7d c2be ec88 0fbe
000002a0: abff 3fbe 654f 873d d70b 06be 4701 873d
000002b0: 5b58 db3c cb45 7c3e 9a69 13be f859 0cbe
000002c0: 28d3 b3bd 9124 c33c c009 353e d66a 02be
000002d0: e84c a1bc 17eb a5bd ea82 b8bd 1374 1f3e
000002e0: 4468 34be 727f b0be fec9 033e ac43 b53d
000002f0: 416d 44bd 7081 cebd 2754 cf3d 6e97 1f3d
00000300: cb1b 28be a611 8ebe cd75 d83d 250d 643e
00000310: 83d0 b83c fa6d 923d ac6e 73be e43e c8bd
00000320: 6a9a f6bc 8e32 64bd 077c 3e3e 14f0 e23d
00000330: 10e2 f8bd 4687 3fbe 12ce ecbd 8c24 233e
00000340: a362 79bd 55fe e63d 293e 683e 0dbe 4a3c
00000350: 5fd3 c5bd 5ef0 bbbd cea5 4fbe efb1 113d
00000360: 2f3d 18be 19c6 883d 73d5 c6bd 40a9 173e
00000370: a3e5 80be d35d 47be 3fda 3dbc 91ad 06be
00000380: 84ff 2ebe 04f7 d43b 70f6 bcbe 893d 8cbe
00000390: ad57 7dbe 6e0c 163e 9c37 f6bd 0a12 cd3d
000003a0: ec34 acbe 5cad 0dbe eb41 323e 8384 413e
000003b0: 45e7 293d bca9 1cbe e2f0 9fbe 940f 7bbe
000003c0: 971a 60be 6e1f a7be 1ffc 1b3e a30c 14be
000003d0: 28b9 2e3e 76a8 fb3c 5c74 87be ba96 fa3d
000003e0: 41b0 843c b496 adbe 1b07 82be d7d7 33bd
000003f0: 1376 af3d 0714 85bd 7223 de3d 742d 65be

bias f4 [16]
0.083507575 0.018112965 0.40033516 0.062063854 0.0698414 -0.12422364 -0.031259667 0.14532916
-0.25989524 0.13746242 -0.064234264 0.26603132 0.33180937 -0.2733431 0.30561018 0.31001014
00000000: 0506 ab3d a461 943c bbf8 cc3e ab36 7e3d
00000010: 0209 8f3d f768 febd 230a 00bd 2bd1 143e
00000020: fd10 85be f3c2 0c3e 418d 83bd 4235 883e
00000030: ebe2 a93e a0f3 8bbe f078 9c3e a6b9 9e3e

weight f4 [32, 16]
0.2146174 0.058616675 -0.13218674 -0.1842032 0.117401175 0.041330606 -0.15856881 0.124423735
-0.03666402 0.19692406 0.1719509 0.06495226 0.06614631 -0.24777173 0.03822128 -0.2582957
0.0340552 -0.101735644 0.11380866 -0.11840502 -0.20530845 -0.07497038 -0.2517884 0.13432227
0.118055895 0.17296591 0.07226229 0.17653587 0.1566642 0.042572178 -0.144595 0.21630113
-0.0764076 -0.25886983 -0.021747354 0.014504577 0.12080358 0.18821602 0.037887957 0.033120003
0.23503916 -0.036118552 -0.17217527 -0.21965687 -0.092806466 -0.12870573 0.10086031 0.17912446
0.06612735 0.08813563 -0.21189943 -0.15362032 0.0089919865 0.023823293 0.07571952 0.18503925
0.0021898528 -0.082587786 -0.01605654 -0.16160053 0.27700123 -0.11825306 -0.16838962 0.16145931
-0.25185454 0.084073626 0.055162802 -0.009399258 -0.14737806 0.00832672 0.04066001 0.0851132
-0.05263667 -0.24553466 -0.13188699 0.15435399 0.13640451 0.15069464 0.04155518 0.26567385
0.23965909 0.029656246 0.0711133 -0.07461015 0.15975268 0.20113549 0.1261842 -0.23518413
0.19896781 -0.14976738 0.021756414 -0.11988282 0.17690302 0.078740075 -0.11631774 -0.16703956
0.039328307 -0.13500783 0.11493263 0.034286287 0.15437922 -0.08573621 0.0882341 -0.1510337
0.008687877 0.1569796 0.11030991 -0.16730487 0.16879638 -0.097698905 -0.1571622 0.11429408
-0.11214251 0.06243571 -0.007987091 -0.05340519 -0.17522004 0.22770569 0.08423607 -0.12952882
0.0786076 -0.16452655 -0.24855539 0.06287519 -0.14618331 -0.1650174 0.17233439 -0.23822853
0.03667977 -0.109746516 -0.024025165 -0.0010694182 -0.020461177 0.06614455 -0.041072223 0.06587954
-0.098131135 -0.13897137 0.08967663 -0.05571768 0.072501786 -0.16278888 0.07831443 -0.21838513
-0.138036 0.032683287 -0.011788781 0.062699996 0.12162001 0.05390223 0.034372978 -0.19516361
0.11864888 0.16439773 0.16154167 -0.18008497 -0.27470323 0.19460171 0.026769273 -0.08319824
0.2671637 0.16547856 0.010351944 -0.018828427 -0.101856165 0.24938749 -0.008893792 -0.058165506
0.08417525 0.30681178 -0.13003135 0.16007225 0.242078 0.008798951 -0.15279913 -0.21623075
0.018619185 -0.16844152 -0.096574426 -0.1020542 -0.027269287 -0.019027133 -0.048414998 -0.22459789
-0.02571224 0.22186089 -0.22492217 0.015120065 -0.10710761 -0.10514176 -0.009101028 0.11830033
-0.24398726 -0.2664619 -0.2215776 0.08996101 -0.06598226 0.08556238 -0.026231248 0.04141017
-0.18813558 0.08285026 0.13860689 -0.2072794 -0.15786439 -0.118171774 -0.22427386 0.21384895
0.089431226 0.023763806 -0.1638903 -0.20684054 -0.041815013 0.10021804 -0.07303539 0.1077625
-0.1798634 -0.22057667 0.17029005 0.19099845 0.019547528 0.01943405 0.23679094 -0.118293434
0.06449583 -0.15707105 -0.12177991 -0.103757575 -0.15861759 -0.17078395 -0.23825382 0.10395094
0.0052741165 0.0036642582 0.16958296 0.13872737 0.15306012 -0.26196015 0.15586951 0.04540994
-0.1685994 -0.19549616 0.14165671 -0.0070894375 -0.19521 0.07332971 -0.18978283 -0.2216093
0.20635444 -0.08810253 0.0020319612 0.13162987 -0.092863664 0.16250011 -0.025289746 0.06610008
00000000: aac4 5b3e 0a18 703d f65b 07be c39f 3cbe
00000010: 0770 f03d 484a 293d dd5f 22be dfd1 fe3d
00000020: 032d 16bd 76a6 493e e613 303e b105 853d
00000030: b777 873d dfb7 7dbe eb8d 1c3d 563f 84be
00000040: 777d 0b3d c75a d0bd 8414 e93d 557e f2bd
00000050: 613c 52be 128a 99bd 69ea 80be c78b 093e
00000060: 4ac7 f13d fa1d 313e 40fe 933d d2c5 343e
00000070: 946c 203e 2a60 2e3d b610 14be 0b7e 5d3e
00000080: 967b 9cbd 968a 84be 8227 b2bc 9ba4 6d3c
00000090: de67 f73d b3bb 403e 6730 1b3d d7a8 073d
000000a0: 1bae 703e 0cf1 13bd b74e 30be bbed 60be
000000b0: 5111 bebd 6fcb 03be da8f ce3d 676c 373e
000000c0: c76d 873d 7480 b43d 2afc 58be a54e 1dbe
000000d0: 2053 133c 1129 c33c d612 9b3d ee7a 3d3e
000000e0: a283 0f3b c923 a9bd 0189 83bc 9c7a 25be
000000f0: 1bd3 8d3e a92e f2bd 546e 2cbe 9755 253e
00000100: 14f3 80be cb2e ac3d 64f2 613d 58ff 19bc
00000110: 46ea 16be cc6c 083c 1c8b 263d d44f ae3d
00000120: 8d99 57bd 706d 7bbe 620d 07be f90e 1e3e
00000130: a0ad 0b3e b24f 1a3e c435 2a3d 6706 883e
00000140: 3169 753e a8f1 f23c daa3 913d 35cd 98bd
00000150: 3596 233e 76f6 4d3e 6e36 013e 1cd4 70be
00000160: 38be 4b3e 9f5c 19be 823a b23c 2085 f5bd
00000170: 1126 353e 7a42 a13d ff37 eebd 6b0c 2bbe
00000180: b816 213d 7e3f 0abe cc61 eb3d c76f 0c3d
00000190: 9615 1e3e 7796 afbd 14b4 b43d 94a8 1abe
000001a0: 9957 0e3c 43bf 203e 29ea e13d f851 2bbe
000001b0: f5d8 2c3e 5d16 c8bd 21ef 20be 0413 ea3d
000001c0: f9aa e5bd 96bc 7f3d 4adc 02bc 67bf 5abd
000001d0: e26c 33be ae2b 693e f683 ac3d 34a3 04be
000001e0: 05fd a03d a679 28be 4e85 7ebe b5c4 803d
000001f0: 14b1 15be 52fa 28be 6d78 303e 2ef2 73be
00000200: 873d 163d c8c2 e0bd 6cd0 c4bc b82b 8cba
00000210: 339e a7bc cb76 873d 593b 28bd daeb 863d
00000220: faf8 c8bd 834e 0ebe 62a8 b73d 3938 64bd
00000230: d17b 943d 21b2 26be 5163 a03d 5aa0 5fbe
00000240: 4f59 0dbe e9de 053d bb25 41bc db68 803d
00000250: e913 f93d 96c8 5c3d aeca 0c3d f8d8 47be
00000260: 2ffe f23d e157 283e 2e6b 253e 3268 38be
00000270: e7a5 8cbe ac45 473e 3c4b db3c d763 aabd
00000280: aec9 883e 3673 293e 339b 293c 133e 9abc
00000290: f799 d0bd 6f5f 7f3e 44b7 11bc f43e 6ebd
000002a0: 1364 ac3d 6f16 9d3e f026 05be fbe9 233e
000002b0: 4ce3 773e 7a29 103c 6077 1cbe 986b 5dbe
000002c0: 4387 983c ef7b 2cbe d0c8 c5bd cb01 d1bd
000002d0: d763 dfbc cade 9bbc ce4e 46bd fdfc 65be
000002e0: 7aa2 d2bc 802f 633e ff51 66be 26ba 773c
000002f0: 3c5b dbbd 9054 d7bd 7a1c 15bc 7247 f23d
00000300: ccd7 79be b26d 88be 3de5 62be 7a3d b83d
00000310: b521 87bd 543b af3d eae2 d6bc b69d 293d
00000320: 9da6 40be 66ad a93d f7ee 0d3e 0d41 54be
00000330: 34a7 21be 0b04 f2bd 0ca8 65be 38fb 5a3e
00000340: b827 b73d 50ac c23c dcd2 27be 02ce 53be
00000350: 3846 2bbd 1e3f cd3d 9493 95bd 96b2 dc3d
00000360: 1c2e 38be dade 61be 8460 2e3e 1995 433e
00000370: 2322 a03c 2834 9f3c 5379 723e d443 f2bd
00000380: 6416 843d 3cd7 20be bf67 f9bd da7e d4bd
00000390: a66c 22be fde1 2ebe cff8 73be 3be4 d43d
000003a0: 7fd2 ac3b 0d24 703b 28a7 2d3e 8c0e 0e3e
000003b0: cbbb 1c3e a41f 86be 429c 1f3e c6ff 393d
000003c0: 52a5 2cbe 2530 48be 750e 113e 834e e8bb
000003d0: 21e5 47be e32d 963d 6e56 42be 8ced 62be
000003e0: 944e 533e 196f b4bd a72a 053b fbc9 063e
000003f0: 4e2f bebd 6e66 263e 712c cfbc 7b5f 873d

bias f4 [32]
-0.16494708 -0.12627406 0.22524278 -0.1553471 -0.11224355 -0.21166936 0.12182838 0.06628225
0.055110734 -0.09431608 -0.17157426 0.09992994 -0.01807177 0.11255359 0.10568842 0.08141293
-0.08911574 0.15752177 0.25627655 0.1663319 0.16445674 0.1162557 0.039727703 0.27352473
0.03230528 -0.0041162395 0.036038365 -0.12186757 0.006421049 -0.15860094 -0.17828602 0.08499305
00000000: e3e7 28be fd4d 01be 0ba6 663e 4f13 1fbe
00000010: f2df e5bd dabf 58be 2881 f93d fdbe 873d
00000020: cbbb 613d ca28 c1bd 2ab1 2fbe 12a8 cc3d
00000030: 400b 94bc 7f82 e63d 2c73 d83d d2bb a63d
00000040: 5082 b6bd 634d 213e ae36 833e e952 2a3e
00000050: 5967 283e 7817 ee3d 84b9 223d 6f0b 8c3e
00000060: 8b52 043d 85e1 86bb f79c 133d b495 f9bd
00000070: aa67 d23b 4968 22be 9c90 36be d610 ae3d

weight f4 [32, 32]
0.09514671 0.033231158 -0.1507514 -0.062304065 -0.058706492 0.11225007 -0.029184408 -0.039206445
-0.0683909 -0.02101171 -0.1958405 0.019207796 -0.1525804 0.112688474 0.0738379 -0.09592527
-0.078122154 0.1619644 0.005987648 -0.006189784 -0.009961456 -0.15541466 0.0034569937 0.11822595
-0.05438256 0.018758107 -0.14963502 -0.10212287 -0.12855604 -0.050354727 0.09155764 0.08035192
-0.13017035 -0.062562875 -0.01968899 -0.13305764 -0.007656849 0.02394257 -0.036413524 0.09248641
0.029811144 -0.14947473 0.0039553116 -0.020822886 -0.08400648 0.17097783 -0.11902837 0.12932597
-0.08384218 -0.09402069 0.17285018 0.0108198095 -0.029399803 -0.032201596 -0.0042570857 0.17181
0.06808196 -0.07686345 -0.098554775 0.08513956 0.02639979 -0.051804665 -0.07841012 -0.011469848
-0.14025316 0.012282943 0.038675867 -0.010289256 0.001911013 -0.05843749 0.051356837 0.15014836
-0.17477655 0.078689195 -0.1429895 -0.035207324 0.049231727 0.02938052 -0.12443892 -0.09025861
0.10156954 -0.041428346 -0.113510266 0.034465484 0.12169207 -0.007200403 -0.039590627 -0.1390819
0.015113794 -0.058278814 -0.05749064 -0.09666506 0.055294506 0.16961828 -0.1411219 -0.1411635
-0.108990625 0.055209056 -0.04883886 -0.037725862 -0.08122113 0.009836357 -0.20839632 -0.15711538
0.118352264 -0.18204659 -0.12007702 -0.06563384 0.050483387 -0.054925706 0.18776354 -0.16558346
0.13288185 -0.0743862 0.15231666 0.10372693 0.0468457 0.12210613 0.09434657 0.03773627
0.032518517 -0.015195793 0.034657013 -0.046440978 -0.09965943 0.07821659 -0.035304174 0.10599763
-0.1393592 0.11156418 -0.03693823 -0.13931498 0.020567244 -0.09934215 -0.09987848 -0.024167692
0.024573384 -0.112896584 -0.28450152 0.091382205 0.016580584 -0.0020433583 -0.080180995 0.06852178
0.12711741 0.048619173 0.023170624 -0.014948904 -0.049109127 0.044702046 0.02180061 0.046192057
-0.084045455 -0.02615487 0.09349615 -0.050872494 0.08339081 -0.12144081 -0.089918956 -0.110826194
0.010793617 -0.14673656 -0.1036987 -0.18138556 -0.14155923 0.035182375 0.0051861913 0.15755251
0.011578665 0.15386362 0.09112803 0.020738034 0.05834017 0.17496608 0.1673782 -0.12469806
0.14456362 0.15270224 -0.01964753 0.10987152 -0.032536633 -0.0784159 -0.049899578 0.18066064
-0.13831691 -0.14165801 -0.008591625 0.13003649 0.11674099 -0.034125853 -0.03695293 -0.12447416
-0.11266252 0.16634929 -0.16125047 0.08235372 -0.058232866 -0.18113253 0.11433951 -0.12141297
-0.14158992 0.08751961 0.10231758 -0.04551265 -0.1207966 0.17103398 0.12754938 -0.09484253
0.07324929 0.016985122 0.085958995 0.057422627 0.1438455 -0.15832253 -0.08524927 -0.11661302
0.15576732 0.03362629 0.15957035 -0.01350659 -0.21431771 -0.004623252 0.10502534 0.07376153
-0.009819354 0.09446832 0.08500106 -0.0442227 0.015805466 -0.03131292 0.1610742 0.15890269
-0.052611753 -0.1420956 0.09579869 0.08509852 -0.1614763 0.15622266 -0.020116432 -0.13643116
0.09813371 0.011357038 0.16628574 -0.10338006 -0.16703591 -0.027062738 -0.04378952 -0.16192432
0.07131202 0.029906213 -0.17015733 -0.1746744 -0.1764554 0.026960276 -0.12282299 0.088640325
00000000: 47dc c23d 651d 083d 935e 1abe 8c32 7fbd
00000010: 3876 70bd 5de3 e53d 2414 efbc f096 20bd
00000020: 8710 8cbd c020 acbc 698a 48be ab59 9d3c
00000030: 093e 1cbe 37c9 e63d 5338 973d 7874 c4bd
00000040: 82fe 9fbd ffd9 253e 0834 c43b acd3 cabb
00000050: 6035 23bc 0525 1fbe bb8e 623b 7220 f23d
00000060: 3fc0 5ebd 9aaa 993c ec39 19be cc25 d1bd
00000070: 32a4 03be c240 4ebd 9282 bb3d 8c8f a43d
00000080: 604b 05be f720 80bd ce4a a1bc 4340 08be
00000090: 4ee6 fabb 3523 c43c 5926 15bd 8469 bd3d
000000a0: 8036 f43c e70f 19be 8f9b 813b c294 aabc
000000b0: 970b acbd d014 2f3e 25c5 f3bd 076e 043e
000000c0: 73b5 abbd eb8d c0bd a3ff 303e 9245 313c
000000d0: dbd7 f0bc d2e5 03bd 067f 8bbb f6ee 2f3e
000000e0: 8e6e 8b3d 966a 9dbd 16d7 c9bd a65d ae3d
000000f0: 5f44 d83c 2131 54bd 7c95 a0bd 08ec 3bbc
00000100: 869e 0fbe 663e 493c 966a 1e3d 4594 28bc
00000110: f57a fa3a 265c 6fbd 8c5b 523d 7ec0 193e
00000120: a0f8 32be cd27 a13d d76b 12be 8e35 10bd
00000130: 35a7 493d 6baf f03c d5d9 febd 82d9 b8bd
00000140: b103 d03d c5b0 29bd 1278 e8bd ae2b 0d3d
00000150: b139 f93d 5cf1 ebbb c829 22bd 7c6b 0ebe
00000160: d99f 773c c4b5 6ebd 4e7b 6bbd 55f8 c5bd
00000170: 7e7c 623d 6ab0 2d3e 4282 10be 2a8d 10be
00000180: 7a36 dfbd e422 623d 420b 48bd 6f86 1abd
00000190: 4457 a6bd ac28 213c d865 55be dbe2 20be
000001a0: ac62 f23d 6c6a 3abe f1ea f5bd 096b 86bd
000001b0: abc7 4e3d c7f9 60bd 1645 403e b68e 29be
000001c0: 2e12 083e cb57 98bd e6f8 1b3e c96e d43d
000001d0: 47e1 3f3d c712 fa3d c638 c13d 5991 1a3d
000001e0: 2332 053d c6f7 78bc 83f4 0d3d e538 3ebd
000001f0: 3e1a ccbd 0530 a03d 1c9b 10bd 4915 d93d
00000200: 2eb4 0ebe c37b e43d 8b4c 17bd 96a8 0ebe
00000210: a37c a83c e673 cbbd 178d ccbd 53fb c5bc
00000220: 1f4e c93c 5336 e7bd 2faa 91be 9826 bb3d
00000230: 01d4 873c dde9 05bb ef35 a4bd 2655 8c3d
00000240: 112b 023e e624 473d 52d0 bd3c 3fec 74bc
00000250: a726 49bd 7e19 373d 3197 b23c e233 3d3d
00000260: 0620 acbd bd42 d6bc e97a bf3d ad5f 50bd
00000270: cdc8 aa3d f6b5 f8bd 6e27 b8bd d8f8 e2bd
00000280: b6d7 303c 1c42 16be fc5f d4bd 23bd 39be
00000290: e7f4 10be 651b 103d edf0 a93b 7255 213e
000002a0: 71b4 3d3c 6d8e 1d3e 55a1 ba3d cfe2 a93c
000002b0: 1af6 6e3d 4f2a 333e 3165 2b3e b261 ffbd
000002c0: 7c08 143e fa5d 1c3e dbf3 a0bc 5204 e13d
000002d0: 2245 05bd 8498 a0bd 8063 4cbd 1aff 383e
000002e0: f3a2 0dbe cc0e 11be e3c3 0cbc 4928 053e
000002f0: e615 ef3d 8dc7 0bbd f55b 17bd 4fec febd
00000300: 9bbb e6bd 7857 2a3e d81e 25be 11a9 a83d
00000310: 9685 6ebd ce7a 39be d52a ea3d 5da7 f8bd
00000320: f3fc 10be 7b3d b33d e18b d13d 796b 3abd
00000330: 3564 f7bd 8823 2f3e 4e9c 023e cd3c c2bd
00000340: b903 963d 6224 8b3c 450b b03d fd33 6b3d
00000350: 3c4c 133e 4d1f 22be 2b97 aebd cfd2 eebd
00000360: 7881 1f3e b8bb 093d 6966 233e bf4a 5dbc
00000370: 1a76 5bbe a67e 97bb 8717 d73d 4910 973d
00000380: 5be1 20bc 9b78 c13d 0915 ae3d dd22 35bd
00000390: 777a 813c fa41 00bd a3f0 243e 63b7 223e
000003a0: 6c7f 57bd 8281 11be 1b32 c43d 2248 ae3d
000003b0: 0b5a 25be d5f8 1f3e 37cb a4bc 9cb4 0bbe
000003c0: 54fa c83d df12 3a3c cf46 2a3e edb8 d3bd
000003d0: 760b 2bbe adb2 ddbc a45c 33bd 7dcf 25be
000003e0: 090c 923d e0fd f43c b93d 2ebe d9dd 32be
000003f0: b9b0 34be ccdb dc3c 9f8a fbbd 0f89 b53d

bias f4 [32]
0.23212564 0.49763316 0.14631422 0.2013888 0.10845232 0.02286852 -0.003864023 0.17535193
-0.06622896 0.16248272 0.07851964 0.50306076 -0.058398668 0.1255919 -0.006639996 -0.051101826
-0.10586481 0.008422814 -0.03749446 0.085868426 -0.085706644 -0.09628728 0.2806381 -0.16522829
0.09392321 0.05003771 -0.052055188 0.025762066 0.14116198 -0.0036448447 0.25202894 0.5285999
00000000: 58b2 6d3e c6c9 fe3e 65d3 153e de38 4e3e
00000010: 401c de3d c356 bb3c 8c3b 7dbb 758f 333e
00000020: 0da3 87bd df61 263e e8ce a03d 97c8 003f
00000030: 7133 6fbd 2a9b 003e 5394 d9bb 2650 51bd
00000040: a6cf d8bd d8ff 093c ca93 19bd c9db af3d
00000050: f786 afbd 4432 c5bd ccaf 8f3e 9b31 29be
00000060: d05a c03d 58f4 4c3d d237 55bd f80a d33c
00000070: c48c 103e 59de 6ebb f009 813e 5352 073f

weight f4 [32, 16]
0.10455941 -0.061658524 0.13824688 -0.38397303 0.12496394 -0.20111468 -0.045156103 -0.07449069
-0.21534054 0.082266435 0.15969442 0.236032 -0.033491887 0.035093717 0.16245317 0.14949678
0.08472019 0.15511887 0.19090097 0.036741395 0.23480698 -0.2327123 -0.11681679 0.24950035
0.10722843 -0.08750855 -0.10661218 -0.019261291 0.055275537 -0.10612284 -0.08012394 -0.04630163
-0.18481392 -0.079215795 -0.11712747 -0.04266254 0.13636358 -0.057061117 -0.2664738 0.046946127
-0.24704073 0.082629435 -0.075737596 -0.003642927 -0.11461193 0.18040852 -0.050058413 0.25588903
-0.14710501 -0.18394682 0.110456854 -0.11274368 0.15564781 0.15166423 -0.03708842 0.29813984
0.015073323 -0.1690277 0.23910306 0.2265083 -0.10864576 0.021788444 0.28046063 -0.17388675
-0.03345667 -0.24999735 0.013847012 -0.3465164 -0.24649037 -0.21190439 -0.14427589 0.26354155
0.12899446 0.10095294 -0.105338804 0.23737115 0.041854385 0.14370202 0.1888335 0.31913865
0.031646013 0.17500944 -0.14210287 0.037757345 -0.13907148 -0.09178395 0.108851895 0.18333909
0.16194874 -0.113574386 -0.20504126 0.15356803 -0.100129396 -0.25455242 0.20345867 0.124828145
-0.20527393 0.11590727 0.22485195 -0.025108647 -0.17323205 -0.12806793 0.011003026 -0.029465185
0.17492115 -0.05852362 -0.015616483 -0.18826963 -0.07085288 0.12806529 0.067570224 -0.012951451
-0.09319323 -0.23484136 -0.0035053738 -0.058344666 -0.02428756 -0.16854322 0.20933314 0.013849275
-0.22983964 0.14185268 -0.029378401 0.016892457 0.03787632 -0.13295089 -0.23715852 -0.1613814
-0.014186576 0.099964514 0.01898938 -0.4437236 0.07314003 0.12474272 0.02509644 0.15456446
0.19339578 0.117339924 -0.23654066 -0.22962314 0.14588642 0.00804485 -0.053799726 0.27476412
-0.2431976 0.023790067 -0.24099004 -0.082312636 0.13946675 -0.13581172 -0.04330152 0.20397928
-0.24695142 0.11526405 -0.1261319 0.05677887 0.11782629 -0.06790231 -0.22184846 -0.05405488
-0.14393018 -0.13725466 0.08066338 -0.049217124 -0.1038396 0.12505946 0.013453511 0.22328067
0.1416529 0.12747055 -0.23067173 0.13433847 0.15802878 -0.2012273 -0.19877845 0.050979804
0.17626202 -0.056304287 0.10930634 0.04080634 0.12116157 -0.1912332 0.14675744 -0.14497583
-0.2450614 -0.1838719 0.28923985 -0.011508304 -0.018625526 0.11832321 -0.0011008496 0.001977896
-0.11185528 -0.27131772 0.10235556 -0.07346828 0.006505894 -0.24186592 0.19635746 -0.21659945
-0.030535363 0.17249079 -0.02352911 -0.1842053 -0.19807899 -0.19568685 0.16562787 0.10394183
-0.19643213 0.097667985 -0.0291322 0.04323941 -0.07235638 -0.27290905 -0.16792227 -0.022679461
-0.24962397 0.18847057 0.14588194 -0.13544515 0.07965913 -0.09725261 -0.17250133 0.22379296
-0.20467222 -0.089132875 -0.24896768 -0.035653535 -0.0026661265 -0.020402504 -0.14991213 0.14574237
-0.10558237 -0.00057341886 -0.26636422 0.04003792 0.13071606 0.012011835 0.119544454 0.26476634
-0.038569573 0.17128588 0.036800314 -0.027558764 -0.12449817 -0.24286944 0.10823113 -0.020155445
0.055191353 -0.00025752833 -0.115008056 -0.21387592 -0.17875671 -0.02708283 -0.029272681 -0.02339803
00000000: 3e23 d63d a68d 7cbd 9790 0d3e 1d98 c4be
00000010: 18ed ff3d 02f1 4dbe 9bf5 38bd 938e 98bd
00000020: 3b82 5cbe 4e7b a83d ef86 233e 5fb2 713e
00000030: ca2e 09bd 6ebe 0f3d 205a 263e af15 193e
00000040: c781 ad3d 7bd7 1e3e 8b7b 433e 257e 163d
00000050: 3e71 703e 224c 6ebe a43d efbd 057d 7f3e
00000060: 949a db3d af37 b3bd 7d57 dabd dbc9 9dbc
00000070: 9a68 623d ee56 d9bd 0518 a4bd c7a6 3dbd
00000080: dc3f 3dbe e43b a2bd 87e0 efbd eabe 2ebd
00000090: e5a2 0b3e ebb8 69bd 416f 88be 954a 403d
000000a0: 3ff8 7cbe 9f39 a93d 501c 9bbd 2cbe 6ebb
000000b0: a9b9 eabd 03bd 383e 0d0a 4dbd e303 833e
000000c0: b2a2 16be 8e5c 3cbe 3437 e23d 29e6 e6bd
000000d0: 2462 1f3e de4d 1b3e 07ea 17bd c9a5 983e
000000e0: 19f6 763c 9915 2dbe 6fd7 743e cbf1 673e
000000f0: ab81 debd ae7d b23c 8998 8f3e 5e0f 32be
00000100: dc09 09bd 4eff 7fbe 94de 623c 996a b1be
00000110: f967 7cbe 77fd 58be 0fbd 13be ebee 863e
00000120: 2017 043e 6ac0 ce3d dfbb d7bd 6c11 733e
00000130: 816f 2b3d 9f26 133e 925d 413e 2466 a33e
00000140: 409f 013d ad35 333e 6a83 11be 72a7 1a3d
00000150: c168 0ebe 39f9 bbbd beed de3d 3ebd 3b3e
00000160: e4d5 253e b099 e8bd 56f6 51be f040 1d3e
00000170: a410 cdbd b254 82be 7857 503e e6a5 ff3d
00000180: 5433 52be ca60 ed3d 973f 663e a6b0 cdbc
00000190: be63 31be 3d24 03be 0946 343c f960 f1bc
000001a0: 881e 333e 77b6 6fbd 47dc 7fbc c1c9 40be
000001b0: 511b 91bd 8c23 033e 4262 8a3d 5332 54bc
000001c0: 18dc bebd 417a 70be 6aba 65bb d1fa 6ebd
000001d0: b4f6 c6bc 9896 2cbe 6d5b 563e 12e8 623c
000001e0: 155b 6bbe d441 113e f9aa f0bc 0d62 8a3c
000001f0: 3324 1b3d 4724 08be afd9 72be 2a41 25be
00000200: d06e 68bc 32ba cc3d 9e8f 9b3c bd2f e3be
00000210: 71ca 953d 1c79 ff3d 0d97 cd3c 2546 1e3e
00000220: 8b09 463e ea4f f03d b737 72be 5422 6bbe
00000230: 4063 153e 8cce 033c 1a5d 5cbd e2ad 8c3e
00000240: cb08 79be 63e3 c23c 18c6 76be 8793 a8bd
00000250: 5fd0 0e3e 3a12 0bbe ef5c 31bd f2df 503e
00000260: d5e0 7cbe 8f0f ec3d b928 01be f690 683d
00000270: e94e f13d 5e10 8bbd 3e2c 63be a668 5dbd
00000280: 6f62 13be 7c8c 0cbe d832 a53d e597 49bd
00000290: dba9 d4bd 960f 003e 1d6c 5c3c b0a3 643e
000002a0: 750d 113e a487 023e 3635 6cbe 0690 093e
000002b0: 4cd2 213e 880e 4ebe 948c 4bbe 33d0 503d
000002c0: 087e 343e 539f 66bd 01dc df3d 8c24 273d
000002d0: 8f23 f83d a3d2 43be 9547 163e 8b74 14be
000002e0: 60f1 7abe ea48 3cbe 3f17 943e 538d 3cbc
000002f0: 8f94 98bc 7053 f23d 624a 90ba 979f 013b
00000300: 6214 e5bd 28ea 8abe cb9f d13d 8a76 96bd
00000310: 652f d53b b3ab 77be ee11 493e 3fcc 5dbe
00000320: 4c25 fabc 6da1 303e 1fc0 c0bc 50a0 3cbe
00000330: 38d5 4abe 2262 48be 5a9a 293e 74df d43d
00000340: 8125 49be 2706 c83d a7a6 eebc cf1b 313d
00000350: 952f 94bd bcba 8bbe d1f3 2bbe 47ca b9bc
00000360: 6d9d 7fbe 6efe 403e 1362 153e 22b2 0abe
00000370: 5324 a33d 602c c7bd 30a4 30be fb29 653e
00000380: 9895 51be 4c8b b6bd 62f1 7ebe 7109 12bd
00000390: 2eba 2ebb 2723 a7bc 9182 19be 7d3d 153e
000003a0: 923b d8bd 7d51 16ba e460 88be cdfe 233d
000003b0: 6eda 053e 4acd 443c b9d3 f43d 748f 873e
000003c0: 21fb 1dbd 9165 2f3e edbb 163d ebc2 e1bc
000003d0: e6f8 febd c4b2 78be 48a8 dd3d 081d a5bc
000003e0: 5410 623d de04 87b9 5889 ebbd 4a02 5bbe
000003f0: 000c 37be d0dc ddbc 43cd efbc 3aad bfbc

bias f4 [32]
0.26368308 0.62789667 -0.13184908 -0.07200948 -0.04406459 0.17213921 0.25909463 -0.0369235
0.13158171 -0.12794204 0.35866913 0.5739495 0.18391062 0.34628028 -0.018622715 -0.16009915
-0.11401478 -0.048439853 0.21230142 -0.06414188 0.039002836 0.2041544 -0.07277723 0.22763379
0.12305843 0.24988641 0.08591299 -0.2138327 -0.010994397 0.30766827 0.34196755 0.19380003
00000000: 7801 873e d6bd 203f 7203 07be b579 93bd
00000010: 127d 34bd 4345 303e 0da8 843e 193d 17bd
00000020: 5bbd 063e 3d03 03be 7ba3 b73e 5bee 123f
00000030: 1153 3c3e a64b b13e aa8e 98bc 08f1 23be
00000040: 9580 e9bd de68 46bd 8b65 593e d15c 83bd
00000050: 70c1 1f3d da0d 513e 3a0c 95bd d518 693e
00000060: 0f06 fc3d 39e2 7f3e 26f3 af3d f6f6 5abe
00000070: d821 34bc b286 9d3e 5f16 af3e 8473 463e
